{"class_name": "Functional", "config": {"name": "inception_resnet_v2", "layers": [{"class_name": "InputLayer", "config": {"batch_input_shape": [null, 299, 299, 3], "dtype": "float32", "sparse": false, "ragged": false, "name": "input_7"}, "name": "input_7", "inbound_nodes": []}, {"class_name": "Conv2D", "config": {"name": "conv2d_1161", "trainable": true, "dtype": "float32", "filters": 32, "kernel_size": [3, 3], "strides": [2, 2], "padding": "valid", "data_format": "channels_last", "dilation_rate": [1, 1], "groups": 1, "activation": "linear", "use_bias": false, "kernel_initializer": {"class_name": "GlorotUniform", "config": {"seed": null}}, "bias_initializer": {"class_name": "Zeros", "config": {}}, "kernel_regularizer": null, "bias_regularizer": null, "activity_regularizer": null, "kernel_constraint": null, "bias_constraint": null}, "name": "conv2d_1161", "inbound_nodes": [[["input_7", 0, 0, {}]]]}, {"class_name": "BatchNormalization", "config": {"name": "batch_normalization_1160", "trainable": true, "dtype": "float32", "axis": [3], "momentum": 0.99, "epsilon": 0.001, "center": true, "scale": false, "beta_initializer": {"class_name": "Zeros", "config": {}}, "gamma_initializer": {"class_name": "Ones", "config": {}}, "moving_mean_initializer": {"class_name": "Zeros", "config": {}}, "moving_variance_initializer": {"class_name": "Ones", "config": {}}, "beta_regularizer": null, "gamma_regularizer": null, "beta_constraint": null, "gamma_constraint": null}, "name": "batch_normalization_1160", "inbound_nodes": [[["conv2d_1161", 0, 0, {}]]]}, {"class_name": "Activation", "config": {"name": "activation_1160", "trainable": true, "dtype": "float32", "activation": "relu"}, "name": "activation_1160", "inbound_nodes": [[["batch_normalization_1160", 0, 0, {}]]]}, {"class_name": "Conv2D", "config": {"name": "conv2d_1162", "trainable": true, "dtype": "float32", "filters": 32, "kernel_size": [3, 3], "strides": [1, 1], "padding": "valid", "data_format": "channels_last", "dilation_rate": [1, 1], "groups": 1, "activation": "linear", "use_bias": false, "kernel_initializer": {"class_name": "GlorotUniform", "config": {"seed": null}}, "bias_initializer": {"class_name": "Zeros", "config": {}}, "kernel_regularizer": null, "bias_regularizer": null, "activity_regularizer": null, "kernel_constraint": null, "bias_constraint": null}, "name": "conv2d_1162", "inbound_nodes": [[["activation_1160", 0, 0, {}]]]}, {"class_name": "BatchNormalization", "config": {"name": "batch_normalization_1161", "trainable": true, "dtype": "float32", "axis": [3], "momentum": 0.99, "epsilon": 0.001, "center": true, "scale": false, "beta_initializer": {"class_name": "Zeros", "config": {}}, "gamma_initializer": {"class_name": "Ones", "config": {}}, "moving_mean_initializer": {"class_name": "Zeros", "config": {}}, "moving_variance_initializer": {"class_name": "Ones", "config": {}}, "beta_regularizer": null, "gamma_regularizer": null, "beta_constraint": null, "gamma_constraint": null}, "name": "batch_normalization_1161", "inbound_nodes": [[["conv2d_1162", 0, 0, {}]]]}, {"class_name": "Activation", "config": {"name": "activation_1161", "trainable": true, "dtype": "float32", "activation": "relu"}, "name": "activation_1161", "inbound_nodes": [[["batch_normalization_1161", 0, 0, {}]]]}, {"class_name": "Conv2D", "config": {"name": "conv2d_1163", "trainable": true, "dtype": "float32", "filters": 64, "kernel_size": [3, 3], "strides": [1, 1], "padding": "same", "data_format": "channels_last", "dilation_rate": [1, 1], "groups": 1, "activation": "linear", "use_bias": false, "kernel_initializer": {"class_name": "GlorotUniform", "config": {"seed": null}}, "bias_initializer": {"class_name": "Zeros", "config": {}}, "kernel_regularizer": null, "bias_regularizer": null, "activity_regularizer": null, "kernel_constraint": null, "bias_constraint": null}, "name": "conv2d_1163", "inbound_nodes": [[["activation_1161", 0, 0, {}]]]}, {"class_name": "BatchNormalization", "config": {"name": "batch_normalization_1162", "trainable": true, "dtype": "float32", "axis": [3], "momentum": 0.99, "epsilon": 0.001, "center": true, "scale": false, "beta_initializer": {"class_name": "Zeros", "config": {}}, "gamma_initializer": {"class_name": "Ones", "config": {}}, "moving_mean_initializer": {"class_name": "Zeros", "config": {}}, "moving_variance_initializer": {"class_name": "Ones", "config": {}}, "beta_regularizer": null, "gamma_regularizer": null, "beta_constraint": null, "gamma_constraint": null}, "name": "batch_normalization_1162", "inbound_nodes": [[["conv2d_1163", 0, 0, {}]]]}, {"class_name": "Activation", "config": {"name": "activation_1162", "trainable": true, "dtype": "float32", "activation": "relu"}, "name": "activation_1162", "inbound_nodes": [[["batch_normalization_1162", 0, 0, {}]]]}, {"class_name": "MaxPooling2D", "config": {"name": "max_pooling2d_23", "trainable": true, "dtype": "float32", "pool_size": [3, 3], "padding": "valid", "strides": [2, 2], "data_format": "channels_last"}, "name": "max_pooling2d_23", "inbound_nodes": [[["activation_1162", 0, 0, {}]]]}, {"class_name": "Conv2D", "config": {"name": "conv2d_1164", "trainable": true, "dtype": "float32", "filters": 80, "kernel_size": [1, 1], "strides": [1, 1], "padding": "valid", "data_format": "channels_last", "dilation_rate": [1, 1], "groups": 1, "activation": "linear", "use_bias": false, "kernel_initializer": {"class_name": "GlorotUniform", "config": {"seed": null}}, "bias_initializer": {"class_name": "Zeros", "config": {}}, "kernel_regularizer": null, "bias_regularizer": null, "activity_regularizer": null, "kernel_constraint": null, "bias_constraint": null}, "name": "conv2d_1164", "inbound_nodes": [[["max_pooling2d_23", 0, 0, {}]]]}, {"class_name": "BatchNormalization", "config": {"name": "batch_normalization_1163", "trainable": true, "dtype": "float32", "axis": [3], "momentum": 0.99, "epsilon": 0.001, "center": true, "scale": false, "beta_initializer": {"class_name": "Zeros", "config": {}}, "gamma_initializer": {"class_name": "Ones", "config": {}}, "moving_mean_initializer": {"class_name": "Zeros", "config": {}}, "moving_variance_initializer": {"class_name": "Ones", "config": {}}, "beta_regularizer": null, "gamma_regularizer": null, "beta_constraint": null, "gamma_constraint": null}, "name": "batch_normalization_1163", "inbound_nodes": [[["conv2d_1164", 0, 0, {}]]]}, {"class_name": "Activation", "config": {"name": "activation_1163", "trainable": true, "dtype": "float32", "activation": "relu"}, "name": "activation_1163", "inbound_nodes": [[["batch_normalization_1163", 0, 0, {}]]]}, {"class_name": "Conv2D", "config": {"name": "conv2d_1165", "trainable": true, "dtype": "float32", "filters": 192, "kernel_size": [3, 3], "strides": [1, 1], "padding": "valid", "data_format": "channels_last", "dilation_rate": [1, 1], "groups": 1, "activation": "linear", "use_bias": false, "kernel_initializer": {"class_name": "GlorotUniform", "config": {"seed": null}}, "bias_initializer": {"class_name": "Zeros", "config": {}}, "kernel_regularizer": null, "bias_regularizer": null, "activity_regularizer": null, "kernel_constraint": null, "bias_constraint": null}, "name": "conv2d_1165", "inbound_nodes": [[["activation_1163", 0, 0, {}]]]}, {"class_name": "BatchNormalization", "config": {"name": "batch_normalization_1164", "trainable": true, "dtype": "float32", "axis": [3], "momentum": 0.99, "epsilon": 0.001, "center": true, "scale": false, "beta_initializer": {"class_name": "Zeros", "config": {}}, "gamma_initializer": {"class_name": "Ones", "config": {}}, "moving_mean_initializer": {"class_name": "Zeros", "config": {}}, "moving_variance_initializer": {"class_name": "Ones", "config": {}}, "beta_regularizer": null, "gamma_regularizer": null, "beta_constraint": null, "gamma_constraint": null}, "name": "batch_normalization_1164", "inbound_nodes": [[["conv2d_1165", 0, 0, {}]]]}, {"class_name": "Activation", "config": {"name": "activation_1164", "trainable": true, "dtype": "float32", "activation": "relu"}, "name": "activation_1164", "inbound_nodes": [[["batch_normalization_1164", 0, 0, {}]]]}, {"class_name": "MaxPooling2D", "config": {"name": "max_pooling2d_24", "trainable": true, "dtype": "float32", "pool_size": [3, 3], "padding": "valid", "strides": [2, 2], "data_format": "channels_last"}, "name": "max_pooling2d_24", "inbound_nodes": [[["activation_1164", 0, 0, {}]]]}, {"class_name": "Conv2D", "config": {"name": "conv2d_1169", "trainable": true, "dtype": "float32", "filters": 64, "kernel_size": [1, 1], "strides": [1, 1], "padding": "same", "data_format": "channels_last", "dilation_rate": [1, 1], "groups": 1, "activation": "linear", "use_bias": false, "kernel_initializer": {"class_name": "GlorotUniform", "config": {"seed": null}}, "bias_initializer": {"class_name": "Zeros", "config": {}}, "kernel_regularizer": null, "bias_regularizer": null, "activity_regularizer": null, "kernel_constraint": null, "bias_constraint": null}, "name": "conv2d_1169", "inbound_nodes": [[["max_pooling2d_24", 0, 0, {}]]]}, {"class_name": "BatchNormalization", "config": {"name": "batch_normalization_1168", "trainable": true, "dtype": "float32", "axis": [3], "momentum": 0.99, "epsilon": 0.001, "center": true, "scale": false, "beta_initializer": {"class_name": "Zeros", "config": {}}, "gamma_initializer": {"class_name": "Ones", "config": {}}, "moving_mean_initializer": {"class_name": "Zeros", "config": {}}, "moving_variance_initializer": {"class_name": "Ones", "config": {}}, "beta_regularizer": null, "gamma_regularizer": null, "beta_constraint": null, "gamma_constraint": null}, "name": "batch_normalization_1168", "inbound_nodes": [[["conv2d_1169", 0, 0, {}]]]}, {"class_name": "Activation", "config": {"name": "activation_1168", "trainable": true, "dtype": "float32", "activation": "relu"}, "name": "activation_1168", "inbound_nodes": [[["batch_normalization_1168", 0, 0, {}]]]}, {"class_name": "Conv2D", "config": {"name": "conv2d_1167", "trainable": true, "dtype": "float32", "filters": 48, "kernel_size": [1, 1], "strides": [1, 1], "padding": "same", "data_format": "channels_last", "dilation_rate": [1, 1], "groups": 1, "activation": "linear", "use_bias": false, "kernel_initializer": {"class_name": "GlorotUniform", "config": {"seed": null}}, "bias_initializer": {"class_name": "Zeros", "config": {}}, "kernel_regularizer": null, "bias_regularizer": null, "activity_regularizer": null, "kernel_constraint": null, "bias_constraint": null}, "name": "conv2d_1167", "inbound_nodes": [[["max_pooling2d_24", 0, 0, {}]]]}, {"class_name": "Conv2D", "config": {"name": "conv2d_1170", "trainable": true, "dtype": "float32", "filters": 96, "kernel_size": [3, 3], "strides": [1, 1], "padding": "same", "data_format": "channels_last", "dilation_rate": [1, 1], "groups": 1, "activation": "linear", "use_bias": false, "kernel_initializer": {"class_name": "GlorotUniform", "config": {"seed": null}}, "bias_initializer": {"class_name": "Zeros", "config": {}}, "kernel_regularizer": null, "bias_regularizer": null, "activity_regularizer": null, "kernel_constraint": null, "bias_constraint": null}, "name": "conv2d_1170", "inbound_nodes": [[["activation_1168", 0, 0, {}]]]}, {"class_name": "BatchNormalization", "config": {"name": "batch_normalization_1166", "trainable": true, "dtype": "float32", "axis": [3], "momentum": 0.99, "epsilon": 0.001, "center": true, "scale": false, "beta_initializer": {"class_name": "Zeros", "config": {}}, "gamma_initializer": {"class_name": "Ones", "config": {}}, "moving_mean_initializer": {"class_name": "Zeros", "config": {}}, "moving_variance_initializer": {"class_name": "Ones", "config": {}}, "beta_regularizer": null, "gamma_regularizer": null, "beta_constraint": null, "gamma_constraint": null}, "name": "batch_normalization_1166", "inbound_nodes": [[["conv2d_1167", 0, 0, {}]]]}, {"class_name": "BatchNormalization", "config": {"name": "batch_normalization_1169", "trainable": true, "dtype": "float32", "axis": [3], "momentum": 0.99, "epsilon": 0.001, "center": true, "scale": false, "beta_initializer": {"class_name": "Zeros", "config": {}}, "gamma_initializer": {"class_name": "Ones", "config": {}}, "moving_mean_initializer": {"class_name": "Zeros", "config": {}}, "moving_variance_initializer": {"class_name": "Ones", "config": {}}, "beta_regularizer": null, "gamma_regularizer": null, "beta_constraint": null, "gamma_constraint": null}, "name": "batch_normalization_1169", "inbound_nodes": [[["conv2d_1170", 0, 0, {}]]]}, {"class_name": "Activation", "config": {"name": "activation_1166", "trainable": true, "dtype": "float32", "activation": "relu"}, "name": "activation_1166", "inbound_nodes": [[["batch_normalization_1166", 0, 0, {}]]]}, {"class_name": "Activation", "config": {"name": "activation_1169", "trainable": true, "dtype": "float32", "activation": "relu"}, "name": "activation_1169", "inbound_nodes": [[["batch_normalization_1169", 0, 0, {}]]]}, {"class_name": "AveragePooling2D", "config": {"name": "average_pooling2d_6", "trainable": true, "dtype": "float32", "pool_size": [3, 3], "padding": "same", "strides": [1, 1], "data_format": "channels_last"}, "name": "average_pooling2d_6", "inbound_nodes": [[["max_pooling2d_24", 0, 0, {}]]]}, {"class_name": "Conv2D", "config": {"name": "conv2d_1166", "trainable": true, "dtype": "float32", "filters": 96, "kernel_size": [1, 1], "strides": [1, 1], "padding": "same", "data_format": "channels_last", "dilation_rate": [1, 1], "groups": 1, "activation": "linear", "use_bias": false, "kernel_initializer": {"class_name": "GlorotUniform", "config": {"seed": null}}, "bias_initializer": {"class_name": "Zeros", "config": {}}, "kernel_regularizer": null, "bias_regularizer": null, "activity_regularizer": null, "kernel_constraint": null, "bias_constraint": null}, "name": "conv2d_1166", "inbound_nodes": [[["max_pooling2d_24", 0, 0, {}]]]}, {"class_name": "Conv2D", "config": {"name": "conv2d_1168", "trainable": true, "dtype": "float32", "filters": 64, "kernel_size": [5, 5], "strides": [1, 1], "padding": "same", "data_format": "channels_last", "dilation_rate": [1, 1], "groups": 1, "activation": "linear", "use_bias": false, "kernel_initializer": {"class_name": "GlorotUniform", "config": {"seed": null}}, "bias_initializer": {"class_name": "Zeros", "config": {}}, "kernel_regularizer": null, "bias_regularizer": null, "activity_regularizer": null, "kernel_constraint": null, "bias_constraint": null}, "name": "conv2d_1168", "inbound_nodes": [[["activation_1166", 0, 0, {}]]]}, {"class_name": "Conv2D", "config": {"name": "conv2d_1171", "trainable": true, "dtype": "float32", "filters": 96, "kernel_size": [3, 3], "strides": [1, 1], "padding": "same", "data_format": "channels_last", "dilation_rate": [1, 1], "groups": 1, "activation": "linear", "use_bias": false, "kernel_initializer": {"class_name": "GlorotUniform", "config": {"seed": null}}, "bias_initializer": {"class_name": "Zeros", "config": {}}, "kernel_regularizer": null, "bias_regularizer": null, "activity_regularizer": null, "kernel_constraint": null, "bias_constraint": null}, "name": "conv2d_1171", "inbound_nodes": [[["activation_1169", 0, 0, {}]]]}, {"class_name": "Conv2D", "config": {"name": "conv2d_1172", "trainable": true, "dtype": "float32", "filters": 64, "kernel_size": [1, 1], "strides": [1, 1], "padding": "same", "data_format": "channels_last", "dilation_rate": [1, 1], "groups": 1, "activation": "linear", "use_bias": false, "kernel_initializer": {"class_name": "GlorotUniform", "config": {"seed": null}}, "bias_initializer": {"class_name": "Zeros", "config": {}}, "kernel_regularizer": null, "bias_regularizer": null, "activity_regularizer": null, "kernel_constraint": null, "bias_constraint": null}, "name": "conv2d_1172", "inbound_nodes": [[["average_pooling2d_6", 0, 0, {}]]]}, {"class_name": "BatchNormalization", "config": {"name": "batch_normalization_1165", "trainable": true, "dtype": "float32", "axis": [3], "momentum": 0.99, "epsilon": 0.001, "center": true, "scale": false, "beta_initializer": {"class_name": "Zeros", "config": {}}, "gamma_initializer": {"class_name": "Ones", "config": {}}, "moving_mean_initializer": {"class_name": "Zeros", "config": {}}, "moving_variance_initializer": {"class_name": "Ones", "config": {}}, "beta_regularizer": null, "gamma_regularizer": null, "beta_constraint": null, "gamma_constraint": null}, "name": "batch_normalization_1165", "inbound_nodes": [[["conv2d_1166", 0, 0, {}]]]}, {"class_name": "BatchNormalization", "config": {"name": "batch_normalization_1167", "trainable": true, "dtype": "float32", "axis": [3], "momentum": 0.99, "epsilon": 0.001, "center": true, "scale": false, "beta_initializer": {"class_name": "Zeros", "config": {}}, "gamma_initializer": {"class_name": "Ones", "config": {}}, "moving_mean_initializer": {"class_name": "Zeros", "config": {}}, "moving_variance_initializer": {"class_name": "Ones", "config": {}}, "beta_regularizer": null, "gamma_regularizer": null, "beta_constraint": null, "gamma_constraint": null}, "name": "batch_normalization_1167", "inbound_nodes": [[["conv2d_1168", 0, 0, {}]]]}, {"class_name": "BatchNormalization", "config": {"name": "batch_normalization_1170", "trainable": true, "dtype": "float32", "axis": [3], "momentum": 0.99, "epsilon": 0.001, "center": true, "scale": false, "beta_initializer": {"class_name": "Zeros", "config": {}}, "gamma_initializer": {"class_name": "Ones", "config": {}}, "moving_mean_initializer": {"class_name": "Zeros", "config": {}}, "moving_variance_initializer": {"class_name": "Ones", "config": {}}, "beta_regularizer": null, "gamma_regularizer": null, "beta_constraint": null, "gamma_constraint": null}, "name": "batch_normalization_1170", "inbound_nodes": [[["conv2d_1171", 0, 0, {}]]]}, {"class_name": "BatchNormalization", "config": {"name": "batch_normalization_1171", "trainable": true, "dtype": "float32", "axis": [3], "momentum": 0.99, "epsilon": 0.001, "center": true, "scale": false, "beta_initializer": {"class_name": "Zeros", "config": {}}, "gamma_initializer": {"class_name": "Ones", "config": {}}, "moving_mean_initializer": {"class_name": "Zeros", "config": {}}, "moving_variance_initializer": {"class_name": "Ones", "config": {}}, "beta_regularizer": null, "gamma_regularizer": null, "beta_constraint": null, "gamma_constraint": null}, "name": "batch_normalization_1171", "inbound_nodes": [[["conv2d_1172", 0, 0, {}]]]}, {"class_name": "Activation", "config": {"name": "activation_1165", "trainable": true, "dtype": "float32", "activation": "relu"}, "name": "activation_1165", "inbound_nodes": [[["batch_normalization_1165", 0, 0, {}]]]}, {"class_name": "Activation", "config": {"name": "activation_1167", "trainable": true, "dtype": "float32", "activation": "relu"}, "name": "activation_1167", "inbound_nodes": [[["batch_normalization_1167", 0, 0, {}]]]}, {"class_name": "Activation", "config": {"name": "activation_1170", "trainable": true, "dtype": "float32", "activation": "relu"}, "name": "activation_1170", "inbound_nodes": [[["batch_normalization_1170", 0, 0, {}]]]}, {"class_name": "Activation", "config": {"name": "activation_1171", "trainable": true, "dtype": "float32", "activation": "relu"}, "name": "activation_1171", "inbound_nodes": [[["batch_normalization_1171", 0, 0, {}]]]}, {"class_name": "Concatenate", "config": {"name": "mixed_5b", "trainable": true, "dtype": "float32", "axis": 3}, "name": "mixed_5b", "inbound_nodes": [[["activation_1165", 0, 0, {}], ["activation_1167", 0, 0, {}], ["activation_1170", 0, 0, {}], ["activation_1171", 0, 0, {}]]]}, {"class_name": "Conv2D", "config": {"name": "conv2d_1176", "trainable": true, "dtype": "float32", "filters": 32, "kernel_size": [1, 1], "strides": [1, 1], "padding": "same", "data_format": "channels_last", "dilation_rate": [1, 1], "groups": 1, "activation": "linear", "use_bias": false, "kernel_initializer": {"class_name": "GlorotUniform", "config": {"seed": null}}, "bias_initializer": {"class_name": "Zeros", "config": {}}, "kernel_regularizer": null, "bias_regularizer": null, "activity_regularizer": null, "kernel_constraint": null, "bias_constraint": null}, "name": "conv2d_1176", "inbound_nodes": [[["mixed_5b", 0, 0, {}]]]}, {"class_name": "BatchNormalization", "config": {"name": "batch_normalization_1175", "trainable": true, "dtype": "float32", "axis": [3], "momentum": 0.99, "epsilon": 0.001, "center": true, "scale": false, "beta_initializer": {"class_name": "Zeros", "config": {}}, "gamma_initializer": {"class_name": "Ones", "config": {}}, "moving_mean_initializer": {"class_name": "Zeros", "config": {}}, "moving_variance_initializer": {"class_name": "Ones", "config": {}}, "beta_regularizer": null, "gamma_regularizer": null, "beta_constraint": null, "gamma_constraint": null}, "name": "batch_normalization_1175", "inbound_nodes": [[["conv2d_1176", 0, 0, {}]]]}, {"class_name": "Activation", "config": {"name": "activation_1175", "trainable": true, "dtype": "float32", "activation": "relu"}, "name": "activation_1175", "inbound_nodes": [[["batch_normalization_1175", 0, 0, {}]]]}, {"class_name": "Conv2D", "config": {"name": "conv2d_1174", "trainable": true, "dtype": "float32", "filters": 32, "kernel_size": [1, 1], "strides": [1, 1], "padding": "same", "data_format": "channels_last", "dilation_rate": [1, 1], "groups": 1, "activation": "linear", "use_bias": false, "kernel_initializer": {"class_name": "GlorotUniform", "config": {"seed": null}}, "bias_initializer": {"class_name": "Zeros", "config": {}}, "kernel_regularizer": null, "bias_regularizer": null, "activity_regularizer": null, "kernel_constraint": null, "bias_constraint": null}, "name": "conv2d_1174", "inbound_nodes": [[["mixed_5b", 0, 0, {}]]]}, {"class_name": "Conv2D", "config": {"name": "conv2d_1177", "trainable": true, "dtype": "float32", "filters": 48, "kernel_size": [3, 3], "strides": [1, 1], "padding": "same", "data_format": "channels_last", "dilation_rate": [1, 1], "groups": 1, "activation": "linear", "use_bias": false, "kernel_initializer": {"class_name": "GlorotUniform", "config": {"seed": null}}, "bias_initializer": {"class_name": "Zeros", "config": {}}, "kernel_regularizer": null, "bias_regularizer": null, "activity_regularizer": null, "kernel_constraint": null, "bias_constraint": null}, "name": "conv2d_1177", "inbound_nodes": [[["activation_1175", 0, 0, {}]]]}, {"class_name": "BatchNormalization", "config": {"name": "batch_normalization_1173", "trainable": true, "dtype": "float32", "axis": [3], "momentum": 0.99, "epsilon": 0.001, "center": true, "scale": false, "beta_initializer": {"class_name": "Zeros", "config": {}}, "gamma_initializer": {"class_name": "Ones", "config": {}}, "moving_mean_initializer": {"class_name": "Zeros", "config": {}}, "moving_variance_initializer": {"class_name": "Ones", "config": {}}, "beta_regularizer": null, "gamma_regularizer": null, "beta_constraint": null, "gamma_constraint": null}, "name": "batch_normalization_1173", "inbound_nodes": [[["conv2d_1174", 0, 0, {}]]]}, {"class_name": "BatchNormalization", "config": {"name": "batch_normalization_1176", "trainable": true, "dtype": "float32", "axis": [3], "momentum": 0.99, "epsilon": 0.001, "center": true, "scale": false, "beta_initializer": {"class_name": "Zeros", "config": {}}, "gamma_initializer": {"class_name": "Ones", "config": {}}, "moving_mean_initializer": {"class_name": "Zeros", "config": {}}, "moving_variance_initializer": {"class_name": "Ones", "config": {}}, "beta_regularizer": null, "gamma_regularizer": null, "beta_constraint": null, "gamma_constraint": null}, "name": "batch_normalization_1176", "inbound_nodes": [[["conv2d_1177", 0, 0, {}]]]}, {"class_name": "Activation", "config": {"name": "activation_1173", "trainable": true, "dtype": "float32", "activation": "relu"}, "name": "activation_1173", "inbound_nodes": [[["batch_normalization_1173", 0, 0, {}]]]}, {"class_name": "Activation", "config": {"name": "activation_1176", "trainable": true, "dtype": "float32", "activation": "relu"}, "name": "activation_1176", "inbound_nodes": [[["batch_normalization_1176", 0, 0, {}]]]}, {"class_name": "Conv2D", "config": {"name": "conv2d_1173", "trainable": true, "dtype": "float32", "filters": 32, "kernel_size": [1, 1], "strides": [1, 1], "padding": "same", "data_format": "channels_last", "dilation_rate": [1, 1], "groups": 1, "activation": "linear", "use_bias": false, "kernel_initializer": {"class_name": "GlorotUniform", "config": {"seed": null}}, "bias_initializer": {"class_name": "Zeros", "config": {}}, "kernel_regularizer": null, "bias_regularizer": null, "activity_regularizer": null, "kernel_constraint": null, "bias_constraint": null}, "name": "conv2d_1173", "inbound_nodes": [[["mixed_5b", 0, 0, {}]]]}, {"class_name": "Conv2D", "config": {"name": "conv2d_1175", "trainable": true, "dtype": "float32", "filters": 32, "kernel_size": [3, 3], "strides": [1, 1], "padding": "same", "data_format": "channels_last", "dilation_rate": [1, 1], "groups": 1, "activation": "linear", "use_bias": false, "kernel_initializer": {"class_name": "GlorotUniform", "config": {"seed": null}}, "bias_initializer": {"class_name": "Zeros", "config": {}}, "kernel_regularizer": null, "bias_regularizer": null, "activity_regularizer": null, "kernel_constraint": null, "bias_constraint": null}, "name": "conv2d_1175", "inbound_nodes": [[["activation_1173", 0, 0, {}]]]}, {"class_name": "Conv2D", "config": {"name": "conv2d_1178", "trainable": true, "dtype": "float32", "filters": 64, "kernel_size": [3, 3], "strides": [1, 1], "padding": "same", "data_format": "channels_last", "dilation_rate": [1, 1], "groups": 1, "activation": "linear", "use_bias": false, "kernel_initializer": {"class_name": "GlorotUniform", "config": {"seed": null}}, "bias_initializer": {"class_name": "Zeros", "config": {}}, "kernel_regularizer": null, "bias_regularizer": null, "activity_regularizer": null, "kernel_constraint": null, "bias_constraint": null}, "name": "conv2d_1178", "inbound_nodes": [[["activation_1176", 0, 0, {}]]]}, {"class_name": "BatchNormalization", "config": {"name": "batch_normalization_1172", "trainable": true, "dtype": "float32", "axis": [3], "momentum": 0.99, "epsilon": 0.001, "center": true, "scale": false, "beta_initializer": {"class_name": "Zeros", "config": {}}, "gamma_initializer": {"class_name": "Ones", "config": {}}, "moving_mean_initializer": {"class_name": "Zeros", "config": {}}, "moving_variance_initializer": {"class_name": "Ones", "config": {}}, "beta_regularizer": null, "gamma_regularizer": null, "beta_constraint": null, "gamma_constraint": null}, "name": "batch_normalization_1172", "inbound_nodes": [[["conv2d_1173", 0, 0, {}]]]}, {"class_name": "BatchNormalization", "config": {"name": "batch_normalization_1174", "trainable": true, "dtype": "float32", "axis": [3], "momentum": 0.99, "epsilon": 0.001, "center": true, "scale": false, "beta_initializer": {"class_name": "Zeros", "config": {}}, "gamma_initializer": {"class_name": "Ones", "config": {}}, "moving_mean_initializer": {"class_name": "Zeros", "config": {}}, "moving_variance_initializer": {"class_name": "Ones", "config": {}}, "beta_regularizer": null, "gamma_regularizer": null, "beta_constraint": null, "gamma_constraint": null}, "name": "batch_normalization_1174", "inbound_nodes": [[["conv2d_1175", 0, 0, {}]]]}, {"class_name": "BatchNormalization", "config": {"name": "batch_normalization_1177", "trainable": true, "dtype": "float32", "axis": [3], "momentum": 0.99, "epsilon": 0.001, "center": true, "scale": false, "beta_initializer": {"class_name": "Zeros", "config": {}}, "gamma_initializer": {"class_name": "Ones", "config": {}}, "moving_mean_initializer": {"class_name": "Zeros", "config": {}}, "moving_variance_initializer": {"class_name": "Ones", "config": {}}, "beta_regularizer": null, "gamma_regularizer": null, "beta_constraint": null, "gamma_constraint": null}, "name": "batch_normalization_1177", "inbound_nodes": [[["conv2d_1178", 0, 0, {}]]]}, {"class_name": "Activation", "config": {"name": "activation_1172", "trainable": true, "dtype": "float32", "activation": "relu"}, "name": "activation_1172", "inbound_nodes": [[["batch_normalization_1172", 0, 0, {}]]]}, {"class_name": "Activation", "config": {"name": "activation_1174", "trainable": true, "dtype": "float32", "activation": "relu"}, "name": "activation_1174", "inbound_nodes": [[["batch_normalization_1174", 0, 0, {}]]]}, {"class_name": "Activation", "config": {"name": "activation_1177", "trainable": true, "dtype": "float32", "activation": "relu"}, "name": "activation_1177", "inbound_nodes": [[["batch_normalization_1177", 0, 0, {}]]]}, {"class_name": "Concatenate", "config": {"name": "block35_1_mixed", "trainable": true, "dtype": "float32", "axis": 3}, "name": "block35_1_mixed", "inbound_nodes": [[["activation_1172", 0, 0, {}], ["activation_1174", 0, 0, {}], ["activation_1177", 0, 0, {}]]]}, {"class_name": "Conv2D", "config": {"name": "block35_1_conv", "trainable": true, "dtype": "float32", "filters": 320, "kernel_size": [1, 1], "strides": [1, 1], "padding": "same", "data_format": "channels_last", "dilation_rate": [1, 1], "groups": 1, "activation": "linear", "use_bias": true, "kernel_initializer": {"class_name": "GlorotUniform", "config": {"seed": null}}, "bias_initializer": {"class_name": "Zeros", "config": {}}, "kernel_regularizer": null, "bias_regularizer": null, "activity_regularizer": null, "kernel_constraint": null, "bias_constraint": null}, "name": "block35_1_conv", "inbound_nodes": [[["block35_1_mixed", 0, 0, {}]]]}, {"class_name": "Lambda", "config": {"name": "block35_1", "trainable": true, "dtype": "float32", "function": ["4wIAAAAAAAAAAgAAAAMAAABTAAAAcxQAAAB8AGQBGQB8AGQCGQB8ARQAFwBTACkDTukAAAAA6QEA\nAACpACkC2gZpbnB1dHPaBXNjYWxlcgMAAAByAwAAAPpiL3Vzci9sb2NhbC9saWIvcHl0aG9uMy42\nL2Rpc3QtcGFja2FnZXMvdGVuc29yZmxvdy9weXRob24va2VyYXMvYXBwbGljYXRpb25zL2luY2Vw\ndGlvbl9yZXNuZXRfdjIucHnaCDxsYW1iZGE+dAEAAPMAAAAA\n", null, null], "function_type": "lambda", "module": "tensorflow.python.keras.applications.inception_resnet_v2", "output_shape": [35, 35, 320], "output_shape_type": "raw", "output_shape_module": null, "arguments": {"scale": 0.17}}, "name": "block35_1", "inbound_nodes": [[["mixed_5b", 0, 0, {}], ["block35_1_conv", 0, 0, {}]]]}, {"class_name": "Activation", "config": {"name": "block35_1_ac", "trainable": true, "dtype": "float32", "activation": "relu"}, "name": "block35_1_ac", "inbound_nodes": [[["block35_1", 0, 0, {}]]]}, {"class_name": "Conv2D", "config": {"name": "conv2d_1182", "trainable": true, "dtype": "float32", "filters": 32, "kernel_size": [1, 1], "strides": [1, 1], "padding": "same", "data_format": "channels_last", "dilation_rate": [1, 1], "groups": 1, "activation": "linear", "use_bias": false, "kernel_initializer": {"class_name": "GlorotUniform", "config": {"seed": null}}, "bias_initializer": {"class_name": "Zeros", "config": {}}, "kernel_regularizer": null, "bias_regularizer": null, "activity_regularizer": null, "kernel_constraint": null, "bias_constraint": null}, "name": "conv2d_1182", "inbound_nodes": [[["block35_1_ac", 0, 0, {}]]]}, {"class_name": "BatchNormalization", "config": {"name": "batch_normalization_1181", "trainable": true, "dtype": "float32", "axis": [3], "momentum": 0.99, "epsilon": 0.001, "center": true, "scale": false, "beta_initializer": {"class_name": "Zeros", "config": {}}, "gamma_initializer": {"class_name": "Ones", "config": {}}, "moving_mean_initializer": {"class_name": "Zeros", "config": {}}, "moving_variance_initializer": {"class_name": "Ones", "config": {}}, "beta_regularizer": null, "gamma_regularizer": null, "beta_constraint": null, "gamma_constraint": null}, "name": "batch_normalization_1181", "inbound_nodes": [[["conv2d_1182", 0, 0, {}]]]}, {"class_name": "Activation", "config": {"name": "activation_1181", "trainable": true, "dtype": "float32", "activation": "relu"}, "name": "activation_1181", "inbound_nodes": [[["batch_normalization_1181", 0, 0, {}]]]}, {"class_name": "Conv2D", "config": {"name": "conv2d_1180", "trainable": true, "dtype": "float32", "filters": 32, "kernel_size": [1, 1], "strides": [1, 1], "padding": "same", "data_format": "channels_last", "dilation_rate": [1, 1], "groups": 1, "activation": "linear", "use_bias": false, "kernel_initializer": {"class_name": "GlorotUniform", "config": {"seed": null}}, "bias_initializer": {"class_name": "Zeros", "config": {}}, "kernel_regularizer": null, "bias_regularizer": null, "activity_regularizer": null, "kernel_constraint": null, "bias_constraint": null}, "name": "conv2d_1180", "inbound_nodes": [[["block35_1_ac", 0, 0, {}]]]}, {"class_name": "Conv2D", "config": {"name": "conv2d_1183", "trainable": true, "dtype": "float32", "filters": 48, "kernel_size": [3, 3], "strides": [1, 1], "padding": "same", "data_format": "channels_last", "dilation_rate": [1, 1], "groups": 1, "activation": "linear", "use_bias": false, "kernel_initializer": {"class_name": "GlorotUniform", "config": {"seed": null}}, "bias_initializer": {"class_name": "Zeros", "config": {}}, "kernel_regularizer": null, "bias_regularizer": null, "activity_regularizer": null, "kernel_constraint": null, "bias_constraint": null}, "name": "conv2d_1183", "inbound_nodes": [[["activation_1181", 0, 0, {}]]]}, {"class_name": "BatchNormalization", "config": {"name": "batch_normalization_1179", "trainable": true, "dtype": "float32", "axis": [3], "momentum": 0.99, "epsilon": 0.001, "center": true, "scale": false, "beta_initializer": {"class_name": "Zeros", "config": {}}, "gamma_initializer": {"class_name": "Ones", "config": {}}, "moving_mean_initializer": {"class_name": "Zeros", "config": {}}, "moving_variance_initializer": {"class_name": "Ones", "config": {}}, "beta_regularizer": null, "gamma_regularizer": null, "beta_constraint": null, "gamma_constraint": null}, "name": "batch_normalization_1179", "inbound_nodes": [[["conv2d_1180", 0, 0, {}]]]}, {"class_name": "BatchNormalization", "config": {"name": "batch_normalization_1182", "trainable": true, "dtype": "float32", "axis": [3], "momentum": 0.99, "epsilon": 0.001, "center": true, "scale": false, "beta_initializer": {"class_name": "Zeros", "config": {}}, "gamma_initializer": {"class_name": "Ones", "config": {}}, "moving_mean_initializer": {"class_name": "Zeros", "config": {}}, "moving_variance_initializer": {"class_name": "Ones", "config": {}}, "beta_regularizer": null, "gamma_regularizer": null, "beta_constraint": null, "gamma_constraint": null}, "name": "batch_normalization_1182", "inbound_nodes": [[["conv2d_1183", 0, 0, {}]]]}, {"class_name": "Activation", "config": {"name": "activation_1179", "trainable": true, "dtype": "float32", "activation": "relu"}, "name": "activation_1179", "inbound_nodes": [[["batch_normalization_1179", 0, 0, {}]]]}, {"class_name": "Activation", "config": {"name": "activation_1182", "trainable": true, "dtype": "float32", "activation": "relu"}, "name": "activation_1182", "inbound_nodes": [[["batch_normalization_1182", 0, 0, {}]]]}, {"class_name": "Conv2D", "config": {"name": "conv2d_1179", "trainable": true, "dtype": "float32", "filters": 32, "kernel_size": [1, 1], "strides": [1, 1], "padding": "same", "data_format": "channels_last", "dilation_rate": [1, 1], "groups": 1, "activation": "linear", "use_bias": false, "kernel_initializer": {"class_name": "GlorotUniform", "config": {"seed": null}}, "bias_initializer": {"class_name": "Zeros", "config": {}}, "kernel_regularizer": null, "bias_regularizer": null, "activity_regularizer": null, "kernel_constraint": null, "bias_constraint": null}, "name": "conv2d_1179", "inbound_nodes": [[["block35_1_ac", 0, 0, {}]]]}, {"class_name": "Conv2D", "config": {"name": "conv2d_1181", "trainable": true, "dtype": "float32", "filters": 32, "kernel_size": [3, 3], "strides": [1, 1], "padding": "same", "data_format": "channels_last", "dilation_rate": [1, 1], "groups": 1, "activation": "linear", "use_bias": false, "kernel_initializer": {"class_name": "GlorotUniform", "config": {"seed": null}}, "bias_initializer": {"class_name": "Zeros", "config": {}}, "kernel_regularizer": null, "bias_regularizer": null, "activity_regularizer": null, "kernel_constraint": null, "bias_constraint": null}, "name": "conv2d_1181", "inbound_nodes": [[["activation_1179", 0, 0, {}]]]}, {"class_name": "Conv2D", "config": {"name": "conv2d_1184", "trainable": true, "dtype": "float32", "filters": 64, "kernel_size": [3, 3], "strides": [1, 1], "padding": "same", "data_format": "channels_last", "dilation_rate": [1, 1], "groups": 1, "activation": "linear", "use_bias": false, "kernel_initializer": {"class_name": "GlorotUniform", "config": {"seed": null}}, "bias_initializer": {"class_name": "Zeros", "config": {}}, "kernel_regularizer": null, "bias_regularizer": null, "activity_regularizer": null, "kernel_constraint": null, "bias_constraint": null}, "name": "conv2d_1184", "inbound_nodes": [[["activation_1182", 0, 0, {}]]]}, {"class_name": "BatchNormalization", "config": {"name": "batch_normalization_1178", "trainable": true, "dtype": "float32", "axis": [3], "momentum": 0.99, "epsilon": 0.001, "center": true, "scale": false, "beta_initializer": {"class_name": "Zeros", "config": {}}, "gamma_initializer": {"class_name": "Ones", "config": {}}, "moving_mean_initializer": {"class_name": "Zeros", "config": {}}, "moving_variance_initializer": {"class_name": "Ones", "config": {}}, "beta_regularizer": null, "gamma_regularizer": null, "beta_constraint": null, "gamma_constraint": null}, "name": "batch_normalization_1178", "inbound_nodes": [[["conv2d_1179", 0, 0, {}]]]}, {"class_name": "BatchNormalization", "config": {"name": "batch_normalization_1180", "trainable": true, "dtype": "float32", "axis": [3], "momentum": 0.99, "epsilon": 0.001, "center": true, "scale": false, "beta_initializer": {"class_name": "Zeros", "config": {}}, "gamma_initializer": {"class_name": "Ones", "config": {}}, "moving_mean_initializer": {"class_name": "Zeros", "config": {}}, "moving_variance_initializer": {"class_name": "Ones", "config": {}}, "beta_regularizer": null, "gamma_regularizer": null, "beta_constraint": null, "gamma_constraint": null}, "name": "batch_normalization_1180", "inbound_nodes": [[["conv2d_1181", 0, 0, {}]]]}, {"class_name": "BatchNormalization", "config": {"name": "batch_normalization_1183", "trainable": true, "dtype": "float32", "axis": [3], "momentum": 0.99, "epsilon": 0.001, "center": true, "scale": false, "beta_initializer": {"class_name": "Zeros", "config": {}}, "gamma_initializer": {"class_name": "Ones", "config": {}}, "moving_mean_initializer": {"class_name": "Zeros", "config": {}}, "moving_variance_initializer": {"class_name": "Ones", "config": {}}, "beta_regularizer": null, "gamma_regularizer": null, "beta_constraint": null, "gamma_constraint": null}, "name": "batch_normalization_1183", "inbound_nodes": [[["conv2d_1184", 0, 0, {}]]]}, {"class_name": "Activation", "config": {"name": "activation_1178", "trainable": true, "dtype": "float32", "activation": "relu"}, "name": "activation_1178", "inbound_nodes": [[["batch_normalization_1178", 0, 0, {}]]]}, {"class_name": "Activation", "config": {"name": "activation_1180", "trainable": true, "dtype": "float32", "activation": "relu"}, "name": "activation_1180", "inbound_nodes": [[["batch_normalization_1180", 0, 0, {}]]]}, {"class_name": "Activation", "config": {"name": "activation_1183", "trainable": true, "dtype": "float32", "activation": "relu"}, "name": "activation_1183", "inbound_nodes": [[["batch_normalization_1183", 0, 0, {}]]]}, {"class_name": "Concatenate", "config": {"name": "block35_2_mixed", "trainable": true, "dtype": "float32", "axis": 3}, "name": "block35_2_mixed", "inbound_nodes": [[["activation_1178", 0, 0, {}], ["activation_1180", 0, 0, {}], ["activation_1183", 0, 0, {}]]]}, {"class_name": "Conv2D", "config": {"name": "block35_2_conv", "trainable": true, "dtype": "float32", "filters": 320, "kernel_size": [1, 1], "strides": [1, 1], "padding": "same", "data_format": "channels_last", "dilation_rate": [1, 1], "groups": 1, "activation": "linear", "use_bias": true, "kernel_initializer": {"class_name": "GlorotUniform", "config": {"seed": null}}, "bias_initializer": {"class_name": "Zeros", "config": {}}, "kernel_regularizer": null, "bias_regularizer": null, "activity_regularizer": null, "kernel_constraint": null, "bias_constraint": null}, "name": "block35_2_conv", "inbound_nodes": [[["block35_2_mixed", 0, 0, {}]]]}, {"class_name": "Lambda", "config": {"name": "block35_2", "trainable": true, "dtype": "float32", "function": ["4wIAAAAAAAAAAgAAAAMAAABTAAAAcxQAAAB8AGQBGQB8AGQCGQB8ARQAFwBTACkDTukAAAAA6QEA\nAACpACkC2gZpbnB1dHPaBXNjYWxlcgMAAAByAwAAAPpiL3Vzci9sb2NhbC9saWIvcHl0aG9uMy42\nL2Rpc3QtcGFja2FnZXMvdGVuc29yZmxvdy9weXRob24va2VyYXMvYXBwbGljYXRpb25zL2luY2Vw\ndGlvbl9yZXNuZXRfdjIucHnaCDxsYW1iZGE+dAEAAPMAAAAA\n", null, null], "function_type": "lambda", "module": "tensorflow.python.keras.applications.inception_resnet_v2", "output_shape": [35, 35, 320], "output_shape_type": "raw", "output_shape_module": null, "arguments": {"scale": 0.17}}, "name": "block35_2", "inbound_nodes": [[["block35_1_ac", 0, 0, {}], ["block35_2_conv", 0, 0, {}]]]}, {"class_name": "Activation", "config": {"name": "block35_2_ac", "trainable": true, "dtype": "float32", "activation": "relu"}, "name": "block35_2_ac", "inbound_nodes": [[["block35_2", 0, 0, {}]]]}, {"class_name": "Conv2D", "config": {"name": "conv2d_1188", "trainable": true, "dtype": "float32", "filters": 32, "kernel_size": [1, 1], "strides": [1, 1], "padding": "same", "data_format": "channels_last", "dilation_rate": [1, 1], "groups": 1, "activation": "linear", "use_bias": false, "kernel_initializer": {"class_name": "GlorotUniform", "config": {"seed": null}}, "bias_initializer": {"class_name": "Zeros", "config": {}}, "kernel_regularizer": null, "bias_regularizer": null, "activity_regularizer": null, "kernel_constraint": null, "bias_constraint": null}, "name": "conv2d_1188", "inbound_nodes": [[["block35_2_ac", 0, 0, {}]]]}, {"class_name": "BatchNormalization", "config": {"name": "batch_normalization_1187", "trainable": true, "dtype": "float32", "axis": [3], "momentum": 0.99, "epsilon": 0.001, "center": true, "scale": false, "beta_initializer": {"class_name": "Zeros", "config": {}}, "gamma_initializer": {"class_name": "Ones", "config": {}}, "moving_mean_initializer": {"class_name": "Zeros", "config": {}}, "moving_variance_initializer": {"class_name": "Ones", "config": {}}, "beta_regularizer": null, "gamma_regularizer": null, "beta_constraint": null, "gamma_constraint": null}, "name": "batch_normalization_1187", "inbound_nodes": [[["conv2d_1188", 0, 0, {}]]]}, {"class_name": "Activation", "config": {"name": "activation_1187", "trainable": true, "dtype": "float32", "activation": "relu"}, "name": "activation_1187", "inbound_nodes": [[["batch_normalization_1187", 0, 0, {}]]]}, {"class_name": "Conv2D", "config": {"name": "conv2d_1186", "trainable": true, "dtype": "float32", "filters": 32, "kernel_size": [1, 1], "strides": [1, 1], "padding": "same", "data_format": "channels_last", "dilation_rate": [1, 1], "groups": 1, "activation": "linear", "use_bias": false, "kernel_initializer": {"class_name": "GlorotUniform", "config": {"seed": null}}, "bias_initializer": {"class_name": "Zeros", "config": {}}, "kernel_regularizer": null, "bias_regularizer": null, "activity_regularizer": null, "kernel_constraint": null, "bias_constraint": null}, "name": "conv2d_1186", "inbound_nodes": [[["block35_2_ac", 0, 0, {}]]]}, {"class_name": "Conv2D", "config": {"name": "conv2d_1189", "trainable": true, "dtype": "float32", "filters": 48, "kernel_size": [3, 3], "strides": [1, 1], "padding": "same", "data_format": "channels_last", "dilation_rate": [1, 1], "groups": 1, "activation": "linear", "use_bias": false, "kernel_initializer": {"class_name": "GlorotUniform", "config": {"seed": null}}, "bias_initializer": {"class_name": "Zeros", "config": {}}, "kernel_regularizer": null, "bias_regularizer": null, "activity_regularizer": null, "kernel_constraint": null, "bias_constraint": null}, "name": "conv2d_1189", "inbound_nodes": [[["activation_1187", 0, 0, {}]]]}, {"class_name": "BatchNormalization", "config": {"name": "batch_normalization_1185", "trainable": true, "dtype": "float32", "axis": [3], "momentum": 0.99, "epsilon": 0.001, "center": true, "scale": false, "beta_initializer": {"class_name": "Zeros", "config": {}}, "gamma_initializer": {"class_name": "Ones", "config": {}}, "moving_mean_initializer": {"class_name": "Zeros", "config": {}}, "moving_variance_initializer": {"class_name": "Ones", "config": {}}, "beta_regularizer": null, "gamma_regularizer": null, "beta_constraint": null, "gamma_constraint": null}, "name": "batch_normalization_1185", "inbound_nodes": [[["conv2d_1186", 0, 0, {}]]]}, {"class_name": "BatchNormalization", "config": {"name": "batch_normalization_1188", "trainable": true, "dtype": "float32", "axis": [3], "momentum": 0.99, "epsilon": 0.001, "center": true, "scale": false, "beta_initializer": {"class_name": "Zeros", "config": {}}, "gamma_initializer": {"class_name": "Ones", "config": {}}, "moving_mean_initializer": {"class_name": "Zeros", "config": {}}, "moving_variance_initializer": {"class_name": "Ones", "config": {}}, "beta_regularizer": null, "gamma_regularizer": null, "beta_constraint": null, "gamma_constraint": null}, "name": "batch_normalization_1188", "inbound_nodes": [[["conv2d_1189", 0, 0, {}]]]}, {"class_name": "Activation", "config": {"name": "activation_1185", "trainable": true, "dtype": "float32", "activation": "relu"}, "name": "activation_1185", "inbound_nodes": [[["batch_normalization_1185", 0, 0, {}]]]}, {"class_name": "Activation", "config": {"name": "activation_1188", "trainable": true, "dtype": "float32", "activation": "relu"}, "name": "activation_1188", "inbound_nodes": [[["batch_normalization_1188", 0, 0, {}]]]}, {"class_name": "Conv2D", "config": {"name": "conv2d_1185", "trainable": true, "dtype": "float32", "filters": 32, "kernel_size": [1, 1], "strides": [1, 1], "padding": "same", "data_format": "channels_last", "dilation_rate": [1, 1], "groups": 1, "activation": "linear", "use_bias": false, "kernel_initializer": {"class_name": "GlorotUniform", "config": {"seed": null}}, "bias_initializer": {"class_name": "Zeros", "config": {}}, "kernel_regularizer": null, "bias_regularizer": null, "activity_regularizer": null, "kernel_constraint": null, "bias_constraint": null}, "name": "conv2d_1185", "inbound_nodes": [[["block35_2_ac", 0, 0, {}]]]}, {"class_name": "Conv2D", "config": {"name": "conv2d_1187", "trainable": true, "dtype": "float32", "filters": 32, "kernel_size": [3, 3], "strides": [1, 1], "padding": "same", "data_format": "channels_last", "dilation_rate": [1, 1], "groups": 1, "activation": "linear", "use_bias": false, "kernel_initializer": {"class_name": "GlorotUniform", "config": {"seed": null}}, "bias_initializer": {"class_name": "Zeros", "config": {}}, "kernel_regularizer": null, "bias_regularizer": null, "activity_regularizer": null, "kernel_constraint": null, "bias_constraint": null}, "name": "conv2d_1187", "inbound_nodes": [[["activation_1185", 0, 0, {}]]]}, {"class_name": "Conv2D", "config": {"name": "conv2d_1190", "trainable": true, "dtype": "float32", "filters": 64, "kernel_size": [3, 3], "strides": [1, 1], "padding": "same", "data_format": "channels_last", "dilation_rate": [1, 1], "groups": 1, "activation": "linear", "use_bias": false, "kernel_initializer": {"class_name": "GlorotUniform", "config": {"seed": null}}, "bias_initializer": {"class_name": "Zeros", "config": {}}, "kernel_regularizer": null, "bias_regularizer": null, "activity_regularizer": null, "kernel_constraint": null, "bias_constraint": null}, "name": "conv2d_1190", "inbound_nodes": [[["activation_1188", 0, 0, {}]]]}, {"class_name": "BatchNormalization", "config": {"name": "batch_normalization_1184", "trainable": true, "dtype": "float32", "axis": [3], "momentum": 0.99, "epsilon": 0.001, "center": true, "scale": false, "beta_initializer": {"class_name": "Zeros", "config": {}}, "gamma_initializer": {"class_name": "Ones", "config": {}}, "moving_mean_initializer": {"class_name": "Zeros", "config": {}}, "moving_variance_initializer": {"class_name": "Ones", "config": {}}, "beta_regularizer": null, "gamma_regularizer": null, "beta_constraint": null, "gamma_constraint": null}, "name": "batch_normalization_1184", "inbound_nodes": [[["conv2d_1185", 0, 0, {}]]]}, {"class_name": "BatchNormalization", "config": {"name": "batch_normalization_1186", "trainable": true, "dtype": "float32", "axis": [3], "momentum": 0.99, "epsilon": 0.001, "center": true, "scale": false, "beta_initializer": {"class_name": "Zeros", "config": {}}, "gamma_initializer": {"class_name": "Ones", "config": {}}, "moving_mean_initializer": {"class_name": "Zeros", "config": {}}, "moving_variance_initializer": {"class_name": "Ones", "config": {}}, "beta_regularizer": null, "gamma_regularizer": null, "beta_constraint": null, "gamma_constraint": null}, "name": "batch_normalization_1186", "inbound_nodes": [[["conv2d_1187", 0, 0, {}]]]}, {"class_name": "BatchNormalization", "config": {"name": "batch_normalization_1189", "trainable": true, "dtype": "float32", "axis": [3], "momentum": 0.99, "epsilon": 0.001, "center": true, "scale": false, "beta_initializer": {"class_name": "Zeros", "config": {}}, "gamma_initializer": {"class_name": "Ones", "config": {}}, "moving_mean_initializer": {"class_name": "Zeros", "config": {}}, "moving_variance_initializer": {"class_name": "Ones", "config": {}}, "beta_regularizer": null, "gamma_regularizer": null, "beta_constraint": null, "gamma_constraint": null}, "name": "batch_normalization_1189", "inbound_nodes": [[["conv2d_1190", 0, 0, {}]]]}, {"class_name": "Activation", "config": {"name": "activation_1184", "trainable": true, "dtype": "float32", "activation": "relu"}, "name": "activation_1184", "inbound_nodes": [[["batch_normalization_1184", 0, 0, {}]]]}, {"class_name": "Activation", "config": {"name": "activation_1186", "trainable": true, "dtype": "float32", "activation": "relu"}, "name": "activation_1186", "inbound_nodes": [[["batch_normalization_1186", 0, 0, {}]]]}, {"class_name": "Activation", "config": {"name": "activation_1189", "trainable": true, "dtype": "float32", "activation": "relu"}, "name": "activation_1189", "inbound_nodes": [[["batch_normalization_1189", 0, 0, {}]]]}, {"class_name": "Concatenate", "config": {"name": "block35_3_mixed", "trainable": true, "dtype": "float32", "axis": 3}, "name": "block35_3_mixed", "inbound_nodes": [[["activation_1184", 0, 0, {}], ["activation_1186", 0, 0, {}], ["activation_1189", 0, 0, {}]]]}, {"class_name": "Conv2D", "config": {"name": "block35_3_conv", "trainable": true, "dtype": "float32", "filters": 320, "kernel_size": [1, 1], "strides": [1, 1], "padding": "same", "data_format": "channels_last", "dilation_rate": [1, 1], "groups": 1, "activation": "linear", "use_bias": true, "kernel_initializer": {"class_name": "GlorotUniform", "config": {"seed": null}}, "bias_initializer": {"class_name": "Zeros", "config": {}}, "kernel_regularizer": null, "bias_regularizer": null, "activity_regularizer": null, "kernel_constraint": null, "bias_constraint": null}, "name": "block35_3_conv", "inbound_nodes": [[["block35_3_mixed", 0, 0, {}]]]}, {"class_name": "Lambda", "config": {"name": "block35_3", "trainable": true, "dtype": "float32", "function": ["4wIAAAAAAAAAAgAAAAMAAABTAAAAcxQAAAB8AGQBGQB8AGQCGQB8ARQAFwBTACkDTukAAAAA6QEA\nAACpACkC2gZpbnB1dHPaBXNjYWxlcgMAAAByAwAAAPpiL3Vzci9sb2NhbC9saWIvcHl0aG9uMy42\nL2Rpc3QtcGFja2FnZXMvdGVuc29yZmxvdy9weXRob24va2VyYXMvYXBwbGljYXRpb25zL2luY2Vw\ndGlvbl9yZXNuZXRfdjIucHnaCDxsYW1iZGE+dAEAAPMAAAAA\n", null, null], "function_type": "lambda", "module": "tensorflow.python.keras.applications.inception_resnet_v2", "output_shape": [35, 35, 320], "output_shape_type": "raw", "output_shape_module": null, "arguments": {"scale": 0.17}}, "name": "block35_3", "inbound_nodes": [[["block35_2_ac", 0, 0, {}], ["block35_3_conv", 0, 0, {}]]]}, {"class_name": "Activation", "config": {"name": "block35_3_ac", "trainable": true, "dtype": "float32", "activation": "relu"}, "name": "block35_3_ac", "inbound_nodes": [[["block35_3", 0, 0, {}]]]}, {"class_name": "Conv2D", "config": {"name": "conv2d_1194", "trainable": true, "dtype": "float32", "filters": 32, "kernel_size": [1, 1], "strides": [1, 1], "padding": "same", "data_format": "channels_last", "dilation_rate": [1, 1], "groups": 1, "activation": "linear", "use_bias": false, "kernel_initializer": {"class_name": "GlorotUniform", "config": {"seed": null}}, "bias_initializer": {"class_name": "Zeros", "config": {}}, "kernel_regularizer": null, "bias_regularizer": null, "activity_regularizer": null, "kernel_constraint": null, "bias_constraint": null}, "name": "conv2d_1194", "inbound_nodes": [[["block35_3_ac", 0, 0, {}]]]}, {"class_name": "BatchNormalization", "config": {"name": "batch_normalization_1193", "trainable": true, "dtype": "float32", "axis": [3], "momentum": 0.99, "epsilon": 0.001, "center": true, "scale": false, "beta_initializer": {"class_name": "Zeros", "config": {}}, "gamma_initializer": {"class_name": "Ones", "config": {}}, "moving_mean_initializer": {"class_name": "Zeros", "config": {}}, "moving_variance_initializer": {"class_name": "Ones", "config": {}}, "beta_regularizer": null, "gamma_regularizer": null, "beta_constraint": null, "gamma_constraint": null}, "name": "batch_normalization_1193", "inbound_nodes": [[["conv2d_1194", 0, 0, {}]]]}, {"class_name": "Activation", "config": {"name": "activation_1193", "trainable": true, "dtype": "float32", "activation": "relu"}, "name": "activation_1193", "inbound_nodes": [[["batch_normalization_1193", 0, 0, {}]]]}, {"class_name": "Conv2D", "config": {"name": "conv2d_1192", "trainable": true, "dtype": "float32", "filters": 32, "kernel_size": [1, 1], "strides": [1, 1], "padding": "same", "data_format": "channels_last", "dilation_rate": [1, 1], "groups": 1, "activation": "linear", "use_bias": false, "kernel_initializer": {"class_name": "GlorotUniform", "config": {"seed": null}}, "bias_initializer": {"class_name": "Zeros", "config": {}}, "kernel_regularizer": null, "bias_regularizer": null, "activity_regularizer": null, "kernel_constraint": null, "bias_constraint": null}, "name": "conv2d_1192", "inbound_nodes": [[["block35_3_ac", 0, 0, {}]]]}, {"class_name": "Conv2D", "config": {"name": "conv2d_1195", "trainable": true, "dtype": "float32", "filters": 48, "kernel_size": [3, 3], "strides": [1, 1], "padding": "same", "data_format": "channels_last", "dilation_rate": [1, 1], "groups": 1, "activation": "linear", "use_bias": false, "kernel_initializer": {"class_name": "GlorotUniform", "config": {"seed": null}}, "bias_initializer": {"class_name": "Zeros", "config": {}}, "kernel_regularizer": null, "bias_regularizer": null, "activity_regularizer": null, "kernel_constraint": null, "bias_constraint": null}, "name": "conv2d_1195", "inbound_nodes": [[["activation_1193", 0, 0, {}]]]}, {"class_name": "BatchNormalization", "config": {"name": "batch_normalization_1191", "trainable": true, "dtype": "float32", "axis": [3], "momentum": 0.99, "epsilon": 0.001, "center": true, "scale": false, "beta_initializer": {"class_name": "Zeros", "config": {}}, "gamma_initializer": {"class_name": "Ones", "config": {}}, "moving_mean_initializer": {"class_name": "Zeros", "config": {}}, "moving_variance_initializer": {"class_name": "Ones", "config": {}}, "beta_regularizer": null, "gamma_regularizer": null, "beta_constraint": null, "gamma_constraint": null}, "name": "batch_normalization_1191", "inbound_nodes": [[["conv2d_1192", 0, 0, {}]]]}, {"class_name": "BatchNormalization", "config": {"name": "batch_normalization_1194", "trainable": true, "dtype": "float32", "axis": [3], "momentum": 0.99, "epsilon": 0.001, "center": true, "scale": false, "beta_initializer": {"class_name": "Zeros", "config": {}}, "gamma_initializer": {"class_name": "Ones", "config": {}}, "moving_mean_initializer": {"class_name": "Zeros", "config": {}}, "moving_variance_initializer": {"class_name": "Ones", "config": {}}, "beta_regularizer": null, "gamma_regularizer": null, "beta_constraint": null, "gamma_constraint": null}, "name": "batch_normalization_1194", "inbound_nodes": [[["conv2d_1195", 0, 0, {}]]]}, {"class_name": "Activation", "config": {"name": "activation_1191", "trainable": true, "dtype": "float32", "activation": "relu"}, "name": "activation_1191", "inbound_nodes": [[["batch_normalization_1191", 0, 0, {}]]]}, {"class_name": "Activation", "config": {"name": "activation_1194", "trainable": true, "dtype": "float32", "activation": "relu"}, "name": "activation_1194", "inbound_nodes": [[["batch_normalization_1194", 0, 0, {}]]]}, {"class_name": "Conv2D", "config": {"name": "conv2d_1191", "trainable": true, "dtype": "float32", "filters": 32, "kernel_size": [1, 1], "strides": [1, 1], "padding": "same", "data_format": "channels_last", "dilation_rate": [1, 1], "groups": 1, "activation": "linear", "use_bias": false, "kernel_initializer": {"class_name": "GlorotUniform", "config": {"seed": null}}, "bias_initializer": {"class_name": "Zeros", "config": {}}, "kernel_regularizer": null, "bias_regularizer": null, "activity_regularizer": null, "kernel_constraint": null, "bias_constraint": null}, "name": "conv2d_1191", "inbound_nodes": [[["block35_3_ac", 0, 0, {}]]]}, {"class_name": "Conv2D", "config": {"name": "conv2d_1193", "trainable": true, "dtype": "float32", "filters": 32, "kernel_size": [3, 3], "strides": [1, 1], "padding": "same", "data_format": "channels_last", "dilation_rate": [1, 1], "groups": 1, "activation": "linear", "use_bias": false, "kernel_initializer": {"class_name": "GlorotUniform", "config": {"seed": null}}, "bias_initializer": {"class_name": "Zeros", "config": {}}, "kernel_regularizer": null, "bias_regularizer": null, "activity_regularizer": null, "kernel_constraint": null, "bias_constraint": null}, "name": "conv2d_1193", "inbound_nodes": [[["activation_1191", 0, 0, {}]]]}, {"class_name": "Conv2D", "config": {"name": "conv2d_1196", "trainable": true, "dtype": "float32", "filters": 64, "kernel_size": [3, 3], "strides": [1, 1], "padding": "same", "data_format": "channels_last", "dilation_rate": [1, 1], "groups": 1, "activation": "linear", "use_bias": false, "kernel_initializer": {"class_name": "GlorotUniform", "config": {"seed": null}}, "bias_initializer": {"class_name": "Zeros", "config": {}}, "kernel_regularizer": null, "bias_regularizer": null, "activity_regularizer": null, "kernel_constraint": null, "bias_constraint": null}, "name": "conv2d_1196", "inbound_nodes": [[["activation_1194", 0, 0, {}]]]}, {"class_name": "BatchNormalization", "config": {"name": "batch_normalization_1190", "trainable": true, "dtype": "float32", "axis": [3], "momentum": 0.99, "epsilon": 0.001, "center": true, "scale": false, "beta_initializer": {"class_name": "Zeros", "config": {}}, "gamma_initializer": {"class_name": "Ones", "config": {}}, "moving_mean_initializer": {"class_name": "Zeros", "config": {}}, "moving_variance_initializer": {"class_name": "Ones", "config": {}}, "beta_regularizer": null, "gamma_regularizer": null, "beta_constraint": null, "gamma_constraint": null}, "name": "batch_normalization_1190", "inbound_nodes": [[["conv2d_1191", 0, 0, {}]]]}, {"class_name": "BatchNormalization", "config": {"name": "batch_normalization_1192", "trainable": true, "dtype": "float32", "axis": [3], "momentum": 0.99, "epsilon": 0.001, "center": true, "scale": false, "beta_initializer": {"class_name": "Zeros", "config": {}}, "gamma_initializer": {"class_name": "Ones", "config": {}}, "moving_mean_initializer": {"class_name": "Zeros", "config": {}}, "moving_variance_initializer": {"class_name": "Ones", "config": {}}, "beta_regularizer": null, "gamma_regularizer": null, "beta_constraint": null, "gamma_constraint": null}, "name": "batch_normalization_1192", "inbound_nodes": [[["conv2d_1193", 0, 0, {}]]]}, {"class_name": "BatchNormalization", "config": {"name": "batch_normalization_1195", "trainable": true, "dtype": "float32", "axis": [3], "momentum": 0.99, "epsilon": 0.001, "center": true, "scale": false, "beta_initializer": {"class_name": "Zeros", "config": {}}, "gamma_initializer": {"class_name": "Ones", "config": {}}, "moving_mean_initializer": {"class_name": "Zeros", "config": {}}, "moving_variance_initializer": {"class_name": "Ones", "config": {}}, "beta_regularizer": null, "gamma_regularizer": null, "beta_constraint": null, "gamma_constraint": null}, "name": "batch_normalization_1195", "inbound_nodes": [[["conv2d_1196", 0, 0, {}]]]}, {"class_name": "Activation", "config": {"name": "activation_1190", "trainable": true, "dtype": "float32", "activation": "relu"}, "name": "activation_1190", "inbound_nodes": [[["batch_normalization_1190", 0, 0, {}]]]}, {"class_name": "Activation", "config": {"name": "activation_1192", "trainable": true, "dtype": "float32", "activation": "relu"}, "name": "activation_1192", "inbound_nodes": [[["batch_normalization_1192", 0, 0, {}]]]}, {"class_name": "Activation", "config": {"name": "activation_1195", "trainable": true, "dtype": "float32", "activation": "relu"}, "name": "activation_1195", "inbound_nodes": [[["batch_normalization_1195", 0, 0, {}]]]}, {"class_name": "Concatenate", "config": {"name": "block35_4_mixed", "trainable": true, "dtype": "float32", "axis": 3}, "name": "block35_4_mixed", "inbound_nodes": [[["activation_1190", 0, 0, {}], ["activation_1192", 0, 0, {}], ["activation_1195", 0, 0, {}]]]}, {"class_name": "Conv2D", "config": {"name": "block35_4_conv", "trainable": true, "dtype": "float32", "filters": 320, "kernel_size": [1, 1], "strides": [1, 1], "padding": "same", "data_format": "channels_last", "dilation_rate": [1, 1], "groups": 1, "activation": "linear", "use_bias": true, "kernel_initializer": {"class_name": "GlorotUniform", "config": {"seed": null}}, "bias_initializer": {"class_name": "Zeros", "config": {}}, "kernel_regularizer": null, "bias_regularizer": null, "activity_regularizer": null, "kernel_constraint": null, "bias_constraint": null}, "name": "block35_4_conv", "inbound_nodes": [[["block35_4_mixed", 0, 0, {}]]]}, {"class_name": "Lambda", "config": {"name": "block35_4", "trainable": true, "dtype": "float32", "function": ["4wIAAAAAAAAAAgAAAAMAAABTAAAAcxQAAAB8AGQBGQB8AGQCGQB8ARQAFwBTACkDTukAAAAA6QEA\nAACpACkC2gZpbnB1dHPaBXNjYWxlcgMAAAByAwAAAPpiL3Vzci9sb2NhbC9saWIvcHl0aG9uMy42\nL2Rpc3QtcGFja2FnZXMvdGVuc29yZmxvdy9weXRob24va2VyYXMvYXBwbGljYXRpb25zL2luY2Vw\ndGlvbl9yZXNuZXRfdjIucHnaCDxsYW1iZGE+dAEAAPMAAAAA\n", null, null], "function_type": "lambda", "module": "tensorflow.python.keras.applications.inception_resnet_v2", "output_shape": [35, 35, 320], "output_shape_type": "raw", "output_shape_module": null, "arguments": {"scale": 0.17}}, "name": "block35_4", "inbound_nodes": [[["block35_3_ac", 0, 0, {}], ["block35_4_conv", 0, 0, {}]]]}, {"class_name": "Activation", "config": {"name": "block35_4_ac", "trainable": true, "dtype": "float32", "activation": "relu"}, "name": "block35_4_ac", "inbound_nodes": [[["block35_4", 0, 0, {}]]]}, {"class_name": "Conv2D", "config": {"name": "conv2d_1200", "trainable": true, "dtype": "float32", "filters": 32, "kernel_size": [1, 1], "strides": [1, 1], "padding": "same", "data_format": "channels_last", "dilation_rate": [1, 1], "groups": 1, "activation": "linear", "use_bias": false, "kernel_initializer": {"class_name": "GlorotUniform", "config": {"seed": null}}, "bias_initializer": {"class_name": "Zeros", "config": {}}, "kernel_regularizer": null, "bias_regularizer": null, "activity_regularizer": null, "kernel_constraint": null, "bias_constraint": null}, "name": "conv2d_1200", "inbound_nodes": [[["block35_4_ac", 0, 0, {}]]]}, {"class_name": "BatchNormalization", "config": {"name": "batch_normalization_1199", "trainable": true, "dtype": "float32", "axis": [3], "momentum": 0.99, "epsilon": 0.001, "center": true, "scale": false, "beta_initializer": {"class_name": "Zeros", "config": {}}, "gamma_initializer": {"class_name": "Ones", "config": {}}, "moving_mean_initializer": {"class_name": "Zeros", "config": {}}, "moving_variance_initializer": {"class_name": "Ones", "config": {}}, "beta_regularizer": null, "gamma_regularizer": null, "beta_constraint": null, "gamma_constraint": null}, "name": "batch_normalization_1199", "inbound_nodes": [[["conv2d_1200", 0, 0, {}]]]}, {"class_name": "Activation", "config": {"name": "activation_1199", "trainable": true, "dtype": "float32", "activation": "relu"}, "name": "activation_1199", "inbound_nodes": [[["batch_normalization_1199", 0, 0, {}]]]}, {"class_name": "Conv2D", "config": {"name": "conv2d_1198", "trainable": true, "dtype": "float32", "filters": 32, "kernel_size": [1, 1], "strides": [1, 1], "padding": "same", "data_format": "channels_last", "dilation_rate": [1, 1], "groups": 1, "activation": "linear", "use_bias": false, "kernel_initializer": {"class_name": "GlorotUniform", "config": {"seed": null}}, "bias_initializer": {"class_name": "Zeros", "config": {}}, "kernel_regularizer": null, "bias_regularizer": null, "activity_regularizer": null, "kernel_constraint": null, "bias_constraint": null}, "name": "conv2d_1198", "inbound_nodes": [[["block35_4_ac", 0, 0, {}]]]}, {"class_name": "Conv2D", "config": {"name": "conv2d_1201", "trainable": true, "dtype": "float32", "filters": 48, "kernel_size": [3, 3], "strides": [1, 1], "padding": "same", "data_format": "channels_last", "dilation_rate": [1, 1], "groups": 1, "activation": "linear", "use_bias": false, "kernel_initializer": {"class_name": "GlorotUniform", "config": {"seed": null}}, "bias_initializer": {"class_name": "Zeros", "config": {}}, "kernel_regularizer": null, "bias_regularizer": null, "activity_regularizer": null, "kernel_constraint": null, "bias_constraint": null}, "name": "conv2d_1201", "inbound_nodes": [[["activation_1199", 0, 0, {}]]]}, {"class_name": "BatchNormalization", "config": {"name": "batch_normalization_1197", "trainable": true, "dtype": "float32", "axis": [3], "momentum": 0.99, "epsilon": 0.001, "center": true, "scale": false, "beta_initializer": {"class_name": "Zeros", "config": {}}, "gamma_initializer": {"class_name": "Ones", "config": {}}, "moving_mean_initializer": {"class_name": "Zeros", "config": {}}, "moving_variance_initializer": {"class_name": "Ones", "config": {}}, "beta_regularizer": null, "gamma_regularizer": null, "beta_constraint": null, "gamma_constraint": null}, "name": "batch_normalization_1197", "inbound_nodes": [[["conv2d_1198", 0, 0, {}]]]}, {"class_name": "BatchNormalization", "config": {"name": "batch_normalization_1200", "trainable": true, "dtype": "float32", "axis": [3], "momentum": 0.99, "epsilon": 0.001, "center": true, "scale": false, "beta_initializer": {"class_name": "Zeros", "config": {}}, "gamma_initializer": {"class_name": "Ones", "config": {}}, "moving_mean_initializer": {"class_name": "Zeros", "config": {}}, "moving_variance_initializer": {"class_name": "Ones", "config": {}}, "beta_regularizer": null, "gamma_regularizer": null, "beta_constraint": null, "gamma_constraint": null}, "name": "batch_normalization_1200", "inbound_nodes": [[["conv2d_1201", 0, 0, {}]]]}, {"class_name": "Activation", "config": {"name": "activation_1197", "trainable": true, "dtype": "float32", "activation": "relu"}, "name": "activation_1197", "inbound_nodes": [[["batch_normalization_1197", 0, 0, {}]]]}, {"class_name": "Activation", "config": {"name": "activation_1200", "trainable": true, "dtype": "float32", "activation": "relu"}, "name": "activation_1200", "inbound_nodes": [[["batch_normalization_1200", 0, 0, {}]]]}, {"class_name": "Conv2D", "config": {"name": "conv2d_1197", "trainable": true, "dtype": "float32", "filters": 32, "kernel_size": [1, 1], "strides": [1, 1], "padding": "same", "data_format": "channels_last", "dilation_rate": [1, 1], "groups": 1, "activation": "linear", "use_bias": false, "kernel_initializer": {"class_name": "GlorotUniform", "config": {"seed": null}}, "bias_initializer": {"class_name": "Zeros", "config": {}}, "kernel_regularizer": null, "bias_regularizer": null, "activity_regularizer": null, "kernel_constraint": null, "bias_constraint": null}, "name": "conv2d_1197", "inbound_nodes": [[["block35_4_ac", 0, 0, {}]]]}, {"class_name": "Conv2D", "config": {"name": "conv2d_1199", "trainable": true, "dtype": "float32", "filters": 32, "kernel_size": [3, 3], "strides": [1, 1], "padding": "same", "data_format": "channels_last", "dilation_rate": [1, 1], "groups": 1, "activation": "linear", "use_bias": false, "kernel_initializer": {"class_name": "GlorotUniform", "config": {"seed": null}}, "bias_initializer": {"class_name": "Zeros", "config": {}}, "kernel_regularizer": null, "bias_regularizer": null, "activity_regularizer": null, "kernel_constraint": null, "bias_constraint": null}, "name": "conv2d_1199", "inbound_nodes": [[["activation_1197", 0, 0, {}]]]}, {"class_name": "Conv2D", "config": {"name": "conv2d_1202", "trainable": true, "dtype": "float32", "filters": 64, "kernel_size": [3, 3], "strides": [1, 1], "padding": "same", "data_format": "channels_last", "dilation_rate": [1, 1], "groups": 1, "activation": "linear", "use_bias": false, "kernel_initializer": {"class_name": "GlorotUniform", "config": {"seed": null}}, "bias_initializer": {"class_name": "Zeros", "config": {}}, "kernel_regularizer": null, "bias_regularizer": null, "activity_regularizer": null, "kernel_constraint": null, "bias_constraint": null}, "name": "conv2d_1202", "inbound_nodes": [[["activation_1200", 0, 0, {}]]]}, {"class_name": "BatchNormalization", "config": {"name": "batch_normalization_1196", "trainable": true, "dtype": "float32", "axis": [3], "momentum": 0.99, "epsilon": 0.001, "center": true, "scale": false, "beta_initializer": {"class_name": "Zeros", "config": {}}, "gamma_initializer": {"class_name": "Ones", "config": {}}, "moving_mean_initializer": {"class_name": "Zeros", "config": {}}, "moving_variance_initializer": {"class_name": "Ones", "config": {}}, "beta_regularizer": null, "gamma_regularizer": null, "beta_constraint": null, "gamma_constraint": null}, "name": "batch_normalization_1196", "inbound_nodes": [[["conv2d_1197", 0, 0, {}]]]}, {"class_name": "BatchNormalization", "config": {"name": "batch_normalization_1198", "trainable": true, "dtype": "float32", "axis": [3], "momentum": 0.99, "epsilon": 0.001, "center": true, "scale": false, "beta_initializer": {"class_name": "Zeros", "config": {}}, "gamma_initializer": {"class_name": "Ones", "config": {}}, "moving_mean_initializer": {"class_name": "Zeros", "config": {}}, "moving_variance_initializer": {"class_name": "Ones", "config": {}}, "beta_regularizer": null, "gamma_regularizer": null, "beta_constraint": null, "gamma_constraint": null}, "name": "batch_normalization_1198", "inbound_nodes": [[["conv2d_1199", 0, 0, {}]]]}, {"class_name": "BatchNormalization", "config": {"name": "batch_normalization_1201", "trainable": true, "dtype": "float32", "axis": [3], "momentum": 0.99, "epsilon": 0.001, "center": true, "scale": false, "beta_initializer": {"class_name": "Zeros", "config": {}}, "gamma_initializer": {"class_name": "Ones", "config": {}}, "moving_mean_initializer": {"class_name": "Zeros", "config": {}}, "moving_variance_initializer": {"class_name": "Ones", "config": {}}, "beta_regularizer": null, "gamma_regularizer": null, "beta_constraint": null, "gamma_constraint": null}, "name": "batch_normalization_1201", "inbound_nodes": [[["conv2d_1202", 0, 0, {}]]]}, {"class_name": "Activation", "config": {"name": "activation_1196", "trainable": true, "dtype": "float32", "activation": "relu"}, "name": "activation_1196", "inbound_nodes": [[["batch_normalization_1196", 0, 0, {}]]]}, {"class_name": "Activation", "config": {"name": "activation_1198", "trainable": true, "dtype": "float32", "activation": "relu"}, "name": "activation_1198", "inbound_nodes": [[["batch_normalization_1198", 0, 0, {}]]]}, {"class_name": "Activation", "config": {"name": "activation_1201", "trainable": true, "dtype": "float32", "activation": "relu"}, "name": "activation_1201", "inbound_nodes": [[["batch_normalization_1201", 0, 0, {}]]]}, {"class_name": "Concatenate", "config": {"name": "block35_5_mixed", "trainable": true, "dtype": "float32", "axis": 3}, "name": "block35_5_mixed", "inbound_nodes": [[["activation_1196", 0, 0, {}], ["activation_1198", 0, 0, {}], ["activation_1201", 0, 0, {}]]]}, {"class_name": "Conv2D", "config": {"name": "block35_5_conv", "trainable": true, "dtype": "float32", "filters": 320, "kernel_size": [1, 1], "strides": [1, 1], "padding": "same", "data_format": "channels_last", "dilation_rate": [1, 1], "groups": 1, "activation": "linear", "use_bias": true, "kernel_initializer": {"class_name": "GlorotUniform", "config": {"seed": null}}, "bias_initializer": {"class_name": "Zeros", "config": {}}, "kernel_regularizer": null, "bias_regularizer": null, "activity_regularizer": null, "kernel_constraint": null, "bias_constraint": null}, "name": "block35_5_conv", "inbound_nodes": [[["block35_5_mixed", 0, 0, {}]]]}, {"class_name": "Lambda", "config": {"name": "block35_5", "trainable": true, "dtype": "float32", "function": ["4wIAAAAAAAAAAgAAAAMAAABTAAAAcxQAAAB8AGQBGQB8AGQCGQB8ARQAFwBTACkDTukAAAAA6QEA\nAACpACkC2gZpbnB1dHPaBXNjYWxlcgMAAAByAwAAAPpiL3Vzci9sb2NhbC9saWIvcHl0aG9uMy42\nL2Rpc3QtcGFja2FnZXMvdGVuc29yZmxvdy9weXRob24va2VyYXMvYXBwbGljYXRpb25zL2luY2Vw\ndGlvbl9yZXNuZXRfdjIucHnaCDxsYW1iZGE+dAEAAPMAAAAA\n", null, null], "function_type": "lambda", "module": "tensorflow.python.keras.applications.inception_resnet_v2", "output_shape": [35, 35, 320], "output_shape_type": "raw", "output_shape_module": null, "arguments": {"scale": 0.17}}, "name": "block35_5", "inbound_nodes": [[["block35_4_ac", 0, 0, {}], ["block35_5_conv", 0, 0, {}]]]}, {"class_name": "Activation", "config": {"name": "block35_5_ac", "trainable": true, "dtype": "float32", "activation": "relu"}, "name": "block35_5_ac", "inbound_nodes": [[["block35_5", 0, 0, {}]]]}, {"class_name": "Conv2D", "config": {"name": "conv2d_1206", "trainable": true, "dtype": "float32", "filters": 32, "kernel_size": [1, 1], "strides": [1, 1], "padding": "same", "data_format": "channels_last", "dilation_rate": [1, 1], "groups": 1, "activation": "linear", "use_bias": false, "kernel_initializer": {"class_name": "GlorotUniform", "config": {"seed": null}}, "bias_initializer": {"class_name": "Zeros", "config": {}}, "kernel_regularizer": null, "bias_regularizer": null, "activity_regularizer": null, "kernel_constraint": null, "bias_constraint": null}, "name": "conv2d_1206", "inbound_nodes": [[["block35_5_ac", 0, 0, {}]]]}, {"class_name": "BatchNormalization", "config": {"name": "batch_normalization_1205", "trainable": true, "dtype": "float32", "axis": [3], "momentum": 0.99, "epsilon": 0.001, "center": true, "scale": false, "beta_initializer": {"class_name": "Zeros", "config": {}}, "gamma_initializer": {"class_name": "Ones", "config": {}}, "moving_mean_initializer": {"class_name": "Zeros", "config": {}}, "moving_variance_initializer": {"class_name": "Ones", "config": {}}, "beta_regularizer": null, "gamma_regularizer": null, "beta_constraint": null, "gamma_constraint": null}, "name": "batch_normalization_1205", "inbound_nodes": [[["conv2d_1206", 0, 0, {}]]]}, {"class_name": "Activation", "config": {"name": "activation_1205", "trainable": true, "dtype": "float32", "activation": "relu"}, "name": "activation_1205", "inbound_nodes": [[["batch_normalization_1205", 0, 0, {}]]]}, {"class_name": "Conv2D", "config": {"name": "conv2d_1204", "trainable": true, "dtype": "float32", "filters": 32, "kernel_size": [1, 1], "strides": [1, 1], "padding": "same", "data_format": "channels_last", "dilation_rate": [1, 1], "groups": 1, "activation": "linear", "use_bias": false, "kernel_initializer": {"class_name": "GlorotUniform", "config": {"seed": null}}, "bias_initializer": {"class_name": "Zeros", "config": {}}, "kernel_regularizer": null, "bias_regularizer": null, "activity_regularizer": null, "kernel_constraint": null, "bias_constraint": null}, "name": "conv2d_1204", "inbound_nodes": [[["block35_5_ac", 0, 0, {}]]]}, {"class_name": "Conv2D", "config": {"name": "conv2d_1207", "trainable": true, "dtype": "float32", "filters": 48, "kernel_size": [3, 3], "strides": [1, 1], "padding": "same", "data_format": "channels_last", "dilation_rate": [1, 1], "groups": 1, "activation": "linear", "use_bias": false, "kernel_initializer": {"class_name": "GlorotUniform", "config": {"seed": null}}, "bias_initializer": {"class_name": "Zeros", "config": {}}, "kernel_regularizer": null, "bias_regularizer": null, "activity_regularizer": null, "kernel_constraint": null, "bias_constraint": null}, "name": "conv2d_1207", "inbound_nodes": [[["activation_1205", 0, 0, {}]]]}, {"class_name": "BatchNormalization", "config": {"name": "batch_normalization_1203", "trainable": true, "dtype": "float32", "axis": [3], "momentum": 0.99, "epsilon": 0.001, "center": true, "scale": false, "beta_initializer": {"class_name": "Zeros", "config": {}}, "gamma_initializer": {"class_name": "Ones", "config": {}}, "moving_mean_initializer": {"class_name": "Zeros", "config": {}}, "moving_variance_initializer": {"class_name": "Ones", "config": {}}, "beta_regularizer": null, "gamma_regularizer": null, "beta_constraint": null, "gamma_constraint": null}, "name": "batch_normalization_1203", "inbound_nodes": [[["conv2d_1204", 0, 0, {}]]]}, {"class_name": "BatchNormalization", "config": {"name": "batch_normalization_1206", "trainable": true, "dtype": "float32", "axis": [3], "momentum": 0.99, "epsilon": 0.001, "center": true, "scale": false, "beta_initializer": {"class_name": "Zeros", "config": {}}, "gamma_initializer": {"class_name": "Ones", "config": {}}, "moving_mean_initializer": {"class_name": "Zeros", "config": {}}, "moving_variance_initializer": {"class_name": "Ones", "config": {}}, "beta_regularizer": null, "gamma_regularizer": null, "beta_constraint": null, "gamma_constraint": null}, "name": "batch_normalization_1206", "inbound_nodes": [[["conv2d_1207", 0, 0, {}]]]}, {"class_name": "Activation", "config": {"name": "activation_1203", "trainable": true, "dtype": "float32", "activation": "relu"}, "name": "activation_1203", "inbound_nodes": [[["batch_normalization_1203", 0, 0, {}]]]}, {"class_name": "Activation", "config": {"name": "activation_1206", "trainable": true, "dtype": "float32", "activation": "relu"}, "name": "activation_1206", "inbound_nodes": [[["batch_normalization_1206", 0, 0, {}]]]}, {"class_name": "Conv2D", "config": {"name": "conv2d_1203", "trainable": true, "dtype": "float32", "filters": 32, "kernel_size": [1, 1], "strides": [1, 1], "padding": "same", "data_format": "channels_last", "dilation_rate": [1, 1], "groups": 1, "activation": "linear", "use_bias": false, "kernel_initializer": {"class_name": "GlorotUniform", "config": {"seed": null}}, "bias_initializer": {"class_name": "Zeros", "config": {}}, "kernel_regularizer": null, "bias_regularizer": null, "activity_regularizer": null, "kernel_constraint": null, "bias_constraint": null}, "name": "conv2d_1203", "inbound_nodes": [[["block35_5_ac", 0, 0, {}]]]}, {"class_name": "Conv2D", "config": {"name": "conv2d_1205", "trainable": true, "dtype": "float32", "filters": 32, "kernel_size": [3, 3], "strides": [1, 1], "padding": "same", "data_format": "channels_last", "dilation_rate": [1, 1], "groups": 1, "activation": "linear", "use_bias": false, "kernel_initializer": {"class_name": "GlorotUniform", "config": {"seed": null}}, "bias_initializer": {"class_name": "Zeros", "config": {}}, "kernel_regularizer": null, "bias_regularizer": null, "activity_regularizer": null, "kernel_constraint": null, "bias_constraint": null}, "name": "conv2d_1205", "inbound_nodes": [[["activation_1203", 0, 0, {}]]]}, {"class_name": "Conv2D", "config": {"name": "conv2d_1208", "trainable": true, "dtype": "float32", "filters": 64, "kernel_size": [3, 3], "strides": [1, 1], "padding": "same", "data_format": "channels_last", "dilation_rate": [1, 1], "groups": 1, "activation": "linear", "use_bias": false, "kernel_initializer": {"class_name": "GlorotUniform", "config": {"seed": null}}, "bias_initializer": {"class_name": "Zeros", "config": {}}, "kernel_regularizer": null, "bias_regularizer": null, "activity_regularizer": null, "kernel_constraint": null, "bias_constraint": null}, "name": "conv2d_1208", "inbound_nodes": [[["activation_1206", 0, 0, {}]]]}, {"class_name": "BatchNormalization", "config": {"name": "batch_normalization_1202", "trainable": true, "dtype": "float32", "axis": [3], "momentum": 0.99, "epsilon": 0.001, "center": true, "scale": false, "beta_initializer": {"class_name": "Zeros", "config": {}}, "gamma_initializer": {"class_name": "Ones", "config": {}}, "moving_mean_initializer": {"class_name": "Zeros", "config": {}}, "moving_variance_initializer": {"class_name": "Ones", "config": {}}, "beta_regularizer": null, "gamma_regularizer": null, "beta_constraint": null, "gamma_constraint": null}, "name": "batch_normalization_1202", "inbound_nodes": [[["conv2d_1203", 0, 0, {}]]]}, {"class_name": "BatchNormalization", "config": {"name": "batch_normalization_1204", "trainable": true, "dtype": "float32", "axis": [3], "momentum": 0.99, "epsilon": 0.001, "center": true, "scale": false, "beta_initializer": {"class_name": "Zeros", "config": {}}, "gamma_initializer": {"class_name": "Ones", "config": {}}, "moving_mean_initializer": {"class_name": "Zeros", "config": {}}, "moving_variance_initializer": {"class_name": "Ones", "config": {}}, "beta_regularizer": null, "gamma_regularizer": null, "beta_constraint": null, "gamma_constraint": null}, "name": "batch_normalization_1204", "inbound_nodes": [[["conv2d_1205", 0, 0, {}]]]}, {"class_name": "BatchNormalization", "config": {"name": "batch_normalization_1207", "trainable": true, "dtype": "float32", "axis": [3], "momentum": 0.99, "epsilon": 0.001, "center": true, "scale": false, "beta_initializer": {"class_name": "Zeros", "config": {}}, "gamma_initializer": {"class_name": "Ones", "config": {}}, "moving_mean_initializer": {"class_name": "Zeros", "config": {}}, "moving_variance_initializer": {"class_name": "Ones", "config": {}}, "beta_regularizer": null, "gamma_regularizer": null, "beta_constraint": null, "gamma_constraint": null}, "name": "batch_normalization_1207", "inbound_nodes": [[["conv2d_1208", 0, 0, {}]]]}, {"class_name": "Activation", "config": {"name": "activation_1202", "trainable": true, "dtype": "float32", "activation": "relu"}, "name": "activation_1202", "inbound_nodes": [[["batch_normalization_1202", 0, 0, {}]]]}, {"class_name": "Activation", "config": {"name": "activation_1204", "trainable": true, "dtype": "float32", "activation": "relu"}, "name": "activation_1204", "inbound_nodes": [[["batch_normalization_1204", 0, 0, {}]]]}, {"class_name": "Activation", "config": {"name": "activation_1207", "trainable": true, "dtype": "float32", "activation": "relu"}, "name": "activation_1207", "inbound_nodes": [[["batch_normalization_1207", 0, 0, {}]]]}, {"class_name": "Concatenate", "config": {"name": "block35_6_mixed", "trainable": true, "dtype": "float32", "axis": 3}, "name": "block35_6_mixed", "inbound_nodes": [[["activation_1202", 0, 0, {}], ["activation_1204", 0, 0, {}], ["activation_1207", 0, 0, {}]]]}, {"class_name": "Conv2D", "config": {"name": "block35_6_conv", "trainable": true, "dtype": "float32", "filters": 320, "kernel_size": [1, 1], "strides": [1, 1], "padding": "same", "data_format": "channels_last", "dilation_rate": [1, 1], "groups": 1, "activation": "linear", "use_bias": true, "kernel_initializer": {"class_name": "GlorotUniform", "config": {"seed": null}}, "bias_initializer": {"class_name": "Zeros", "config": {}}, "kernel_regularizer": null, "bias_regularizer": null, "activity_regularizer": null, "kernel_constraint": null, "bias_constraint": null}, "name": "block35_6_conv", "inbound_nodes": [[["block35_6_mixed", 0, 0, {}]]]}, {"class_name": "Lambda", "config": {"name": "block35_6", "trainable": true, "dtype": "float32", "function": ["4wIAAAAAAAAAAgAAAAMAAABTAAAAcxQAAAB8AGQBGQB8AGQCGQB8ARQAFwBTACkDTukAAAAA6QEA\nAACpACkC2gZpbnB1dHPaBXNjYWxlcgMAAAByAwAAAPpiL3Vzci9sb2NhbC9saWIvcHl0aG9uMy42\nL2Rpc3QtcGFja2FnZXMvdGVuc29yZmxvdy9weXRob24va2VyYXMvYXBwbGljYXRpb25zL2luY2Vw\ndGlvbl9yZXNuZXRfdjIucHnaCDxsYW1iZGE+dAEAAPMAAAAA\n", null, null], "function_type": "lambda", "module": "tensorflow.python.keras.applications.inception_resnet_v2", "output_shape": [35, 35, 320], "output_shape_type": "raw", "output_shape_module": null, "arguments": {"scale": 0.17}}, "name": "block35_6", "inbound_nodes": [[["block35_5_ac", 0, 0, {}], ["block35_6_conv", 0, 0, {}]]]}, {"class_name": "Activation", "config": {"name": "block35_6_ac", "trainable": true, "dtype": "float32", "activation": "relu"}, "name": "block35_6_ac", "inbound_nodes": [[["block35_6", 0, 0, {}]]]}, {"class_name": "Conv2D", "config": {"name": "conv2d_1212", "trainable": true, "dtype": "float32", "filters": 32, "kernel_size": [1, 1], "strides": [1, 1], "padding": "same", "data_format": "channels_last", "dilation_rate": [1, 1], "groups": 1, "activation": "linear", "use_bias": false, "kernel_initializer": {"class_name": "GlorotUniform", "config": {"seed": null}}, "bias_initializer": {"class_name": "Zeros", "config": {}}, "kernel_regularizer": null, "bias_regularizer": null, "activity_regularizer": null, "kernel_constraint": null, "bias_constraint": null}, "name": "conv2d_1212", "inbound_nodes": [[["block35_6_ac", 0, 0, {}]]]}, {"class_name": "BatchNormalization", "config": {"name": "batch_normalization_1211", "trainable": true, "dtype": "float32", "axis": [3], "momentum": 0.99, "epsilon": 0.001, "center": true, "scale": false, "beta_initializer": {"class_name": "Zeros", "config": {}}, "gamma_initializer": {"class_name": "Ones", "config": {}}, "moving_mean_initializer": {"class_name": "Zeros", "config": {}}, "moving_variance_initializer": {"class_name": "Ones", "config": {}}, "beta_regularizer": null, "gamma_regularizer": null, "beta_constraint": null, "gamma_constraint": null}, "name": "batch_normalization_1211", "inbound_nodes": [[["conv2d_1212", 0, 0, {}]]]}, {"class_name": "Activation", "config": {"name": "activation_1211", "trainable": true, "dtype": "float32", "activation": "relu"}, "name": "activation_1211", "inbound_nodes": [[["batch_normalization_1211", 0, 0, {}]]]}, {"class_name": "Conv2D", "config": {"name": "conv2d_1210", "trainable": true, "dtype": "float32", "filters": 32, "kernel_size": [1, 1], "strides": [1, 1], "padding": "same", "data_format": "channels_last", "dilation_rate": [1, 1], "groups": 1, "activation": "linear", "use_bias": false, "kernel_initializer": {"class_name": "GlorotUniform", "config": {"seed": null}}, "bias_initializer": {"class_name": "Zeros", "config": {}}, "kernel_regularizer": null, "bias_regularizer": null, "activity_regularizer": null, "kernel_constraint": null, "bias_constraint": null}, "name": "conv2d_1210", "inbound_nodes": [[["block35_6_ac", 0, 0, {}]]]}, {"class_name": "Conv2D", "config": {"name": "conv2d_1213", "trainable": true, "dtype": "float32", "filters": 48, "kernel_size": [3, 3], "strides": [1, 1], "padding": "same", "data_format": "channels_last", "dilation_rate": [1, 1], "groups": 1, "activation": "linear", "use_bias": false, "kernel_initializer": {"class_name": "GlorotUniform", "config": {"seed": null}}, "bias_initializer": {"class_name": "Zeros", "config": {}}, "kernel_regularizer": null, "bias_regularizer": null, "activity_regularizer": null, "kernel_constraint": null, "bias_constraint": null}, "name": "conv2d_1213", "inbound_nodes": [[["activation_1211", 0, 0, {}]]]}, {"class_name": "BatchNormalization", "config": {"name": "batch_normalization_1209", "trainable": true, "dtype": "float32", "axis": [3], "momentum": 0.99, "epsilon": 0.001, "center": true, "scale": false, "beta_initializer": {"class_name": "Zeros", "config": {}}, "gamma_initializer": {"class_name": "Ones", "config": {}}, "moving_mean_initializer": {"class_name": "Zeros", "config": {}}, "moving_variance_initializer": {"class_name": "Ones", "config": {}}, "beta_regularizer": null, "gamma_regularizer": null, "beta_constraint": null, "gamma_constraint": null}, "name": "batch_normalization_1209", "inbound_nodes": [[["conv2d_1210", 0, 0, {}]]]}, {"class_name": "BatchNormalization", "config": {"name": "batch_normalization_1212", "trainable": true, "dtype": "float32", "axis": [3], "momentum": 0.99, "epsilon": 0.001, "center": true, "scale": false, "beta_initializer": {"class_name": "Zeros", "config": {}}, "gamma_initializer": {"class_name": "Ones", "config": {}}, "moving_mean_initializer": {"class_name": "Zeros", "config": {}}, "moving_variance_initializer": {"class_name": "Ones", "config": {}}, "beta_regularizer": null, "gamma_regularizer": null, "beta_constraint": null, "gamma_constraint": null}, "name": "batch_normalization_1212", "inbound_nodes": [[["conv2d_1213", 0, 0, {}]]]}, {"class_name": "Activation", "config": {"name": "activation_1209", "trainable": true, "dtype": "float32", "activation": "relu"}, "name": "activation_1209", "inbound_nodes": [[["batch_normalization_1209", 0, 0, {}]]]}, {"class_name": "Activation", "config": {"name": "activation_1212", "trainable": true, "dtype": "float32", "activation": "relu"}, "name": "activation_1212", "inbound_nodes": [[["batch_normalization_1212", 0, 0, {}]]]}, {"class_name": "Conv2D", "config": {"name": "conv2d_1209", "trainable": true, "dtype": "float32", "filters": 32, "kernel_size": [1, 1], "strides": [1, 1], "padding": "same", "data_format": "channels_last", "dilation_rate": [1, 1], "groups": 1, "activation": "linear", "use_bias": false, "kernel_initializer": {"class_name": "GlorotUniform", "config": {"seed": null}}, "bias_initializer": {"class_name": "Zeros", "config": {}}, "kernel_regularizer": null, "bias_regularizer": null, "activity_regularizer": null, "kernel_constraint": null, "bias_constraint": null}, "name": "conv2d_1209", "inbound_nodes": [[["block35_6_ac", 0, 0, {}]]]}, {"class_name": "Conv2D", "config": {"name": "conv2d_1211", "trainable": true, "dtype": "float32", "filters": 32, "kernel_size": [3, 3], "strides": [1, 1], "padding": "same", "data_format": "channels_last", "dilation_rate": [1, 1], "groups": 1, "activation": "linear", "use_bias": false, "kernel_initializer": {"class_name": "GlorotUniform", "config": {"seed": null}}, "bias_initializer": {"class_name": "Zeros", "config": {}}, "kernel_regularizer": null, "bias_regularizer": null, "activity_regularizer": null, "kernel_constraint": null, "bias_constraint": null}, "name": "conv2d_1211", "inbound_nodes": [[["activation_1209", 0, 0, {}]]]}, {"class_name": "Conv2D", "config": {"name": "conv2d_1214", "trainable": true, "dtype": "float32", "filters": 64, "kernel_size": [3, 3], "strides": [1, 1], "padding": "same", "data_format": "channels_last", "dilation_rate": [1, 1], "groups": 1, "activation": "linear", "use_bias": false, "kernel_initializer": {"class_name": "GlorotUniform", "config": {"seed": null}}, "bias_initializer": {"class_name": "Zeros", "config": {}}, "kernel_regularizer": null, "bias_regularizer": null, "activity_regularizer": null, "kernel_constraint": null, "bias_constraint": null}, "name": "conv2d_1214", "inbound_nodes": [[["activation_1212", 0, 0, {}]]]}, {"class_name": "BatchNormalization", "config": {"name": "batch_normalization_1208", "trainable": true, "dtype": "float32", "axis": [3], "momentum": 0.99, "epsilon": 0.001, "center": true, "scale": false, "beta_initializer": {"class_name": "Zeros", "config": {}}, "gamma_initializer": {"class_name": "Ones", "config": {}}, "moving_mean_initializer": {"class_name": "Zeros", "config": {}}, "moving_variance_initializer": {"class_name": "Ones", "config": {}}, "beta_regularizer": null, "gamma_regularizer": null, "beta_constraint": null, "gamma_constraint": null}, "name": "batch_normalization_1208", "inbound_nodes": [[["conv2d_1209", 0, 0, {}]]]}, {"class_name": "BatchNormalization", "config": {"name": "batch_normalization_1210", "trainable": true, "dtype": "float32", "axis": [3], "momentum": 0.99, "epsilon": 0.001, "center": true, "scale": false, "beta_initializer": {"class_name": "Zeros", "config": {}}, "gamma_initializer": {"class_name": "Ones", "config": {}}, "moving_mean_initializer": {"class_name": "Zeros", "config": {}}, "moving_variance_initializer": {"class_name": "Ones", "config": {}}, "beta_regularizer": null, "gamma_regularizer": null, "beta_constraint": null, "gamma_constraint": null}, "name": "batch_normalization_1210", "inbound_nodes": [[["conv2d_1211", 0, 0, {}]]]}, {"class_name": "BatchNormalization", "config": {"name": "batch_normalization_1213", "trainable": true, "dtype": "float32", "axis": [3], "momentum": 0.99, "epsilon": 0.001, "center": true, "scale": false, "beta_initializer": {"class_name": "Zeros", "config": {}}, "gamma_initializer": {"class_name": "Ones", "config": {}}, "moving_mean_initializer": {"class_name": "Zeros", "config": {}}, "moving_variance_initializer": {"class_name": "Ones", "config": {}}, "beta_regularizer": null, "gamma_regularizer": null, "beta_constraint": null, "gamma_constraint": null}, "name": "batch_normalization_1213", "inbound_nodes": [[["conv2d_1214", 0, 0, {}]]]}, {"class_name": "Activation", "config": {"name": "activation_1208", "trainable": true, "dtype": "float32", "activation": "relu"}, "name": "activation_1208", "inbound_nodes": [[["batch_normalization_1208", 0, 0, {}]]]}, {"class_name": "Activation", "config": {"name": "activation_1210", "trainable": true, "dtype": "float32", "activation": "relu"}, "name": "activation_1210", "inbound_nodes": [[["batch_normalization_1210", 0, 0, {}]]]}, {"class_name": "Activation", "config": {"name": "activation_1213", "trainable": true, "dtype": "float32", "activation": "relu"}, "name": "activation_1213", "inbound_nodes": [[["batch_normalization_1213", 0, 0, {}]]]}, {"class_name": "Concatenate", "config": {"name": "block35_7_mixed", "trainable": true, "dtype": "float32", "axis": 3}, "name": "block35_7_mixed", "inbound_nodes": [[["activation_1208", 0, 0, {}], ["activation_1210", 0, 0, {}], ["activation_1213", 0, 0, {}]]]}, {"class_name": "Conv2D", "config": {"name": "block35_7_conv", "trainable": true, "dtype": "float32", "filters": 320, "kernel_size": [1, 1], "strides": [1, 1], "padding": "same", "data_format": "channels_last", "dilation_rate": [1, 1], "groups": 1, "activation": "linear", "use_bias": true, "kernel_initializer": {"class_name": "GlorotUniform", "config": {"seed": null}}, "bias_initializer": {"class_name": "Zeros", "config": {}}, "kernel_regularizer": null, "bias_regularizer": null, "activity_regularizer": null, "kernel_constraint": null, "bias_constraint": null}, "name": "block35_7_conv", "inbound_nodes": [[["block35_7_mixed", 0, 0, {}]]]}, {"class_name": "Lambda", "config": {"name": "block35_7", "trainable": true, "dtype": "float32", "function": ["4wIAAAAAAAAAAgAAAAMAAABTAAAAcxQAAAB8AGQBGQB8AGQCGQB8ARQAFwBTACkDTukAAAAA6QEA\nAACpACkC2gZpbnB1dHPaBXNjYWxlcgMAAAByAwAAAPpiL3Vzci9sb2NhbC9saWIvcHl0aG9uMy42\nL2Rpc3QtcGFja2FnZXMvdGVuc29yZmxvdy9weXRob24va2VyYXMvYXBwbGljYXRpb25zL2luY2Vw\ndGlvbl9yZXNuZXRfdjIucHnaCDxsYW1iZGE+dAEAAPMAAAAA\n", null, null], "function_type": "lambda", "module": "tensorflow.python.keras.applications.inception_resnet_v2", "output_shape": [35, 35, 320], "output_shape_type": "raw", "output_shape_module": null, "arguments": {"scale": 0.17}}, "name": "block35_7", "inbound_nodes": [[["block35_6_ac", 0, 0, {}], ["block35_7_conv", 0, 0, {}]]]}, {"class_name": "Activation", "config": {"name": "block35_7_ac", "trainable": true, "dtype": "float32", "activation": "relu"}, "name": "block35_7_ac", "inbound_nodes": [[["block35_7", 0, 0, {}]]]}, {"class_name": "Conv2D", "config": {"name": "conv2d_1218", "trainable": true, "dtype": "float32", "filters": 32, "kernel_size": [1, 1], "strides": [1, 1], "padding": "same", "data_format": "channels_last", "dilation_rate": [1, 1], "groups": 1, "activation": "linear", "use_bias": false, "kernel_initializer": {"class_name": "GlorotUniform", "config": {"seed": null}}, "bias_initializer": {"class_name": "Zeros", "config": {}}, "kernel_regularizer": null, "bias_regularizer": null, "activity_regularizer": null, "kernel_constraint": null, "bias_constraint": null}, "name": "conv2d_1218", "inbound_nodes": [[["block35_7_ac", 0, 0, {}]]]}, {"class_name": "BatchNormalization", "config": {"name": "batch_normalization_1217", "trainable": true, "dtype": "float32", "axis": [3], "momentum": 0.99, "epsilon": 0.001, "center": true, "scale": false, "beta_initializer": {"class_name": "Zeros", "config": {}}, "gamma_initializer": {"class_name": "Ones", "config": {}}, "moving_mean_initializer": {"class_name": "Zeros", "config": {}}, "moving_variance_initializer": {"class_name": "Ones", "config": {}}, "beta_regularizer": null, "gamma_regularizer": null, "beta_constraint": null, "gamma_constraint": null}, "name": "batch_normalization_1217", "inbound_nodes": [[["conv2d_1218", 0, 0, {}]]]}, {"class_name": "Activation", "config": {"name": "activation_1217", "trainable": true, "dtype": "float32", "activation": "relu"}, "name": "activation_1217", "inbound_nodes": [[["batch_normalization_1217", 0, 0, {}]]]}, {"class_name": "Conv2D", "config": {"name": "conv2d_1216", "trainable": true, "dtype": "float32", "filters": 32, "kernel_size": [1, 1], "strides": [1, 1], "padding": "same", "data_format": "channels_last", "dilation_rate": [1, 1], "groups": 1, "activation": "linear", "use_bias": false, "kernel_initializer": {"class_name": "GlorotUniform", "config": {"seed": null}}, "bias_initializer": {"class_name": "Zeros", "config": {}}, "kernel_regularizer": null, "bias_regularizer": null, "activity_regularizer": null, "kernel_constraint": null, "bias_constraint": null}, "name": "conv2d_1216", "inbound_nodes": [[["block35_7_ac", 0, 0, {}]]]}, {"class_name": "Conv2D", "config": {"name": "conv2d_1219", "trainable": true, "dtype": "float32", "filters": 48, "kernel_size": [3, 3], "strides": [1, 1], "padding": "same", "data_format": "channels_last", "dilation_rate": [1, 1], "groups": 1, "activation": "linear", "use_bias": false, "kernel_initializer": {"class_name": "GlorotUniform", "config": {"seed": null}}, "bias_initializer": {"class_name": "Zeros", "config": {}}, "kernel_regularizer": null, "bias_regularizer": null, "activity_regularizer": null, "kernel_constraint": null, "bias_constraint": null}, "name": "conv2d_1219", "inbound_nodes": [[["activation_1217", 0, 0, {}]]]}, {"class_name": "BatchNormalization", "config": {"name": "batch_normalization_1215", "trainable": true, "dtype": "float32", "axis": [3], "momentum": 0.99, "epsilon": 0.001, "center": true, "scale": false, "beta_initializer": {"class_name": "Zeros", "config": {}}, "gamma_initializer": {"class_name": "Ones", "config": {}}, "moving_mean_initializer": {"class_name": "Zeros", "config": {}}, "moving_variance_initializer": {"class_name": "Ones", "config": {}}, "beta_regularizer": null, "gamma_regularizer": null, "beta_constraint": null, "gamma_constraint": null}, "name": "batch_normalization_1215", "inbound_nodes": [[["conv2d_1216", 0, 0, {}]]]}, {"class_name": "BatchNormalization", "config": {"name": "batch_normalization_1218", "trainable": true, "dtype": "float32", "axis": [3], "momentum": 0.99, "epsilon": 0.001, "center": true, "scale": false, "beta_initializer": {"class_name": "Zeros", "config": {}}, "gamma_initializer": {"class_name": "Ones", "config": {}}, "moving_mean_initializer": {"class_name": "Zeros", "config": {}}, "moving_variance_initializer": {"class_name": "Ones", "config": {}}, "beta_regularizer": null, "gamma_regularizer": null, "beta_constraint": null, "gamma_constraint": null}, "name": "batch_normalization_1218", "inbound_nodes": [[["conv2d_1219", 0, 0, {}]]]}, {"class_name": "Activation", "config": {"name": "activation_1215", "trainable": true, "dtype": "float32", "activation": "relu"}, "name": "activation_1215", "inbound_nodes": [[["batch_normalization_1215", 0, 0, {}]]]}, {"class_name": "Activation", "config": {"name": "activation_1218", "trainable": true, "dtype": "float32", "activation": "relu"}, "name": "activation_1218", "inbound_nodes": [[["batch_normalization_1218", 0, 0, {}]]]}, {"class_name": "Conv2D", "config": {"name": "conv2d_1215", "trainable": true, "dtype": "float32", "filters": 32, "kernel_size": [1, 1], "strides": [1, 1], "padding": "same", "data_format": "channels_last", "dilation_rate": [1, 1], "groups": 1, "activation": "linear", "use_bias": false, "kernel_initializer": {"class_name": "GlorotUniform", "config": {"seed": null}}, "bias_initializer": {"class_name": "Zeros", "config": {}}, "kernel_regularizer": null, "bias_regularizer": null, "activity_regularizer": null, "kernel_constraint": null, "bias_constraint": null}, "name": "conv2d_1215", "inbound_nodes": [[["block35_7_ac", 0, 0, {}]]]}, {"class_name": "Conv2D", "config": {"name": "conv2d_1217", "trainable": true, "dtype": "float32", "filters": 32, "kernel_size": [3, 3], "strides": [1, 1], "padding": "same", "data_format": "channels_last", "dilation_rate": [1, 1], "groups": 1, "activation": "linear", "use_bias": false, "kernel_initializer": {"class_name": "GlorotUniform", "config": {"seed": null}}, "bias_initializer": {"class_name": "Zeros", "config": {}}, "kernel_regularizer": null, "bias_regularizer": null, "activity_regularizer": null, "kernel_constraint": null, "bias_constraint": null}, "name": "conv2d_1217", "inbound_nodes": [[["activation_1215", 0, 0, {}]]]}, {"class_name": "Conv2D", "config": {"name": "conv2d_1220", "trainable": true, "dtype": "float32", "filters": 64, "kernel_size": [3, 3], "strides": [1, 1], "padding": "same", "data_format": "channels_last", "dilation_rate": [1, 1], "groups": 1, "activation": "linear", "use_bias": false, "kernel_initializer": {"class_name": "GlorotUniform", "config": {"seed": null}}, "bias_initializer": {"class_name": "Zeros", "config": {}}, "kernel_regularizer": null, "bias_regularizer": null, "activity_regularizer": null, "kernel_constraint": null, "bias_constraint": null}, "name": "conv2d_1220", "inbound_nodes": [[["activation_1218", 0, 0, {}]]]}, {"class_name": "BatchNormalization", "config": {"name": "batch_normalization_1214", "trainable": true, "dtype": "float32", "axis": [3], "momentum": 0.99, "epsilon": 0.001, "center": true, "scale": false, "beta_initializer": {"class_name": "Zeros", "config": {}}, "gamma_initializer": {"class_name": "Ones", "config": {}}, "moving_mean_initializer": {"class_name": "Zeros", "config": {}}, "moving_variance_initializer": {"class_name": "Ones", "config": {}}, "beta_regularizer": null, "gamma_regularizer": null, "beta_constraint": null, "gamma_constraint": null}, "name": "batch_normalization_1214", "inbound_nodes": [[["conv2d_1215", 0, 0, {}]]]}, {"class_name": "BatchNormalization", "config": {"name": "batch_normalization_1216", "trainable": true, "dtype": "float32", "axis": [3], "momentum": 0.99, "epsilon": 0.001, "center": true, "scale": false, "beta_initializer": {"class_name": "Zeros", "config": {}}, "gamma_initializer": {"class_name": "Ones", "config": {}}, "moving_mean_initializer": {"class_name": "Zeros", "config": {}}, "moving_variance_initializer": {"class_name": "Ones", "config": {}}, "beta_regularizer": null, "gamma_regularizer": null, "beta_constraint": null, "gamma_constraint": null}, "name": "batch_normalization_1216", "inbound_nodes": [[["conv2d_1217", 0, 0, {}]]]}, {"class_name": "BatchNormalization", "config": {"name": "batch_normalization_1219", "trainable": true, "dtype": "float32", "axis": [3], "momentum": 0.99, "epsilon": 0.001, "center": true, "scale": false, "beta_initializer": {"class_name": "Zeros", "config": {}}, "gamma_initializer": {"class_name": "Ones", "config": {}}, "moving_mean_initializer": {"class_name": "Zeros", "config": {}}, "moving_variance_initializer": {"class_name": "Ones", "config": {}}, "beta_regularizer": null, "gamma_regularizer": null, "beta_constraint": null, "gamma_constraint": null}, "name": "batch_normalization_1219", "inbound_nodes": [[["conv2d_1220", 0, 0, {}]]]}, {"class_name": "Activation", "config": {"name": "activation_1214", "trainable": true, "dtype": "float32", "activation": "relu"}, "name": "activation_1214", "inbound_nodes": [[["batch_normalization_1214", 0, 0, {}]]]}, {"class_name": "Activation", "config": {"name": "activation_1216", "trainable": true, "dtype": "float32", "activation": "relu"}, "name": "activation_1216", "inbound_nodes": [[["batch_normalization_1216", 0, 0, {}]]]}, {"class_name": "Activation", "config": {"name": "activation_1219", "trainable": true, "dtype": "float32", "activation": "relu"}, "name": "activation_1219", "inbound_nodes": [[["batch_normalization_1219", 0, 0, {}]]]}, {"class_name": "Concatenate", "config": {"name": "block35_8_mixed", "trainable": true, "dtype": "float32", "axis": 3}, "name": "block35_8_mixed", "inbound_nodes": [[["activation_1214", 0, 0, {}], ["activation_1216", 0, 0, {}], ["activation_1219", 0, 0, {}]]]}, {"class_name": "Conv2D", "config": {"name": "block35_8_conv", "trainable": true, "dtype": "float32", "filters": 320, "kernel_size": [1, 1], "strides": [1, 1], "padding": "same", "data_format": "channels_last", "dilation_rate": [1, 1], "groups": 1, "activation": "linear", "use_bias": true, "kernel_initializer": {"class_name": "GlorotUniform", "config": {"seed": null}}, "bias_initializer": {"class_name": "Zeros", "config": {}}, "kernel_regularizer": null, "bias_regularizer": null, "activity_regularizer": null, "kernel_constraint": null, "bias_constraint": null}, "name": "block35_8_conv", "inbound_nodes": [[["block35_8_mixed", 0, 0, {}]]]}, {"class_name": "Lambda", "config": {"name": "block35_8", "trainable": true, "dtype": "float32", "function": ["4wIAAAAAAAAAAgAAAAMAAABTAAAAcxQAAAB8AGQBGQB8AGQCGQB8ARQAFwBTACkDTukAAAAA6QEA\nAACpACkC2gZpbnB1dHPaBXNjYWxlcgMAAAByAwAAAPpiL3Vzci9sb2NhbC9saWIvcHl0aG9uMy42\nL2Rpc3QtcGFja2FnZXMvdGVuc29yZmxvdy9weXRob24va2VyYXMvYXBwbGljYXRpb25zL2luY2Vw\ndGlvbl9yZXNuZXRfdjIucHnaCDxsYW1iZGE+dAEAAPMAAAAA\n", null, null], "function_type": "lambda", "module": "tensorflow.python.keras.applications.inception_resnet_v2", "output_shape": [35, 35, 320], "output_shape_type": "raw", "output_shape_module": null, "arguments": {"scale": 0.17}}, "name": "block35_8", "inbound_nodes": [[["block35_7_ac", 0, 0, {}], ["block35_8_conv", 0, 0, {}]]]}, {"class_name": "Activation", "config": {"name": "block35_8_ac", "trainable": true, "dtype": "float32", "activation": "relu"}, "name": "block35_8_ac", "inbound_nodes": [[["block35_8", 0, 0, {}]]]}, {"class_name": "Conv2D", "config": {"name": "conv2d_1224", "trainable": true, "dtype": "float32", "filters": 32, "kernel_size": [1, 1], "strides": [1, 1], "padding": "same", "data_format": "channels_last", "dilation_rate": [1, 1], "groups": 1, "activation": "linear", "use_bias": false, "kernel_initializer": {"class_name": "GlorotUniform", "config": {"seed": null}}, "bias_initializer": {"class_name": "Zeros", "config": {}}, "kernel_regularizer": null, "bias_regularizer": null, "activity_regularizer": null, "kernel_constraint": null, "bias_constraint": null}, "name": "conv2d_1224", "inbound_nodes": [[["block35_8_ac", 0, 0, {}]]]}, {"class_name": "BatchNormalization", "config": {"name": "batch_normalization_1223", "trainable": true, "dtype": "float32", "axis": [3], "momentum": 0.99, "epsilon": 0.001, "center": true, "scale": false, "beta_initializer": {"class_name": "Zeros", "config": {}}, "gamma_initializer": {"class_name": "Ones", "config": {}}, "moving_mean_initializer": {"class_name": "Zeros", "config": {}}, "moving_variance_initializer": {"class_name": "Ones", "config": {}}, "beta_regularizer": null, "gamma_regularizer": null, "beta_constraint": null, "gamma_constraint": null}, "name": "batch_normalization_1223", "inbound_nodes": [[["conv2d_1224", 0, 0, {}]]]}, {"class_name": "Activation", "config": {"name": "activation_1223", "trainable": true, "dtype": "float32", "activation": "relu"}, "name": "activation_1223", "inbound_nodes": [[["batch_normalization_1223", 0, 0, {}]]]}, {"class_name": "Conv2D", "config": {"name": "conv2d_1222", "trainable": true, "dtype": "float32", "filters": 32, "kernel_size": [1, 1], "strides": [1, 1], "padding": "same", "data_format": "channels_last", "dilation_rate": [1, 1], "groups": 1, "activation": "linear", "use_bias": false, "kernel_initializer": {"class_name": "GlorotUniform", "config": {"seed": null}}, "bias_initializer": {"class_name": "Zeros", "config": {}}, "kernel_regularizer": null, "bias_regularizer": null, "activity_regularizer": null, "kernel_constraint": null, "bias_constraint": null}, "name": "conv2d_1222", "inbound_nodes": [[["block35_8_ac", 0, 0, {}]]]}, {"class_name": "Conv2D", "config": {"name": "conv2d_1225", "trainable": true, "dtype": "float32", "filters": 48, "kernel_size": [3, 3], "strides": [1, 1], "padding": "same", "data_format": "channels_last", "dilation_rate": [1, 1], "groups": 1, "activation": "linear", "use_bias": false, "kernel_initializer": {"class_name": "GlorotUniform", "config": {"seed": null}}, "bias_initializer": {"class_name": "Zeros", "config": {}}, "kernel_regularizer": null, "bias_regularizer": null, "activity_regularizer": null, "kernel_constraint": null, "bias_constraint": null}, "name": "conv2d_1225", "inbound_nodes": [[["activation_1223", 0, 0, {}]]]}, {"class_name": "BatchNormalization", "config": {"name": "batch_normalization_1221", "trainable": true, "dtype": "float32", "axis": [3], "momentum": 0.99, "epsilon": 0.001, "center": true, "scale": false, "beta_initializer": {"class_name": "Zeros", "config": {}}, "gamma_initializer": {"class_name": "Ones", "config": {}}, "moving_mean_initializer": {"class_name": "Zeros", "config": {}}, "moving_variance_initializer": {"class_name": "Ones", "config": {}}, "beta_regularizer": null, "gamma_regularizer": null, "beta_constraint": null, "gamma_constraint": null}, "name": "batch_normalization_1221", "inbound_nodes": [[["conv2d_1222", 0, 0, {}]]]}, {"class_name": "BatchNormalization", "config": {"name": "batch_normalization_1224", "trainable": true, "dtype": "float32", "axis": [3], "momentum": 0.99, "epsilon": 0.001, "center": true, "scale": false, "beta_initializer": {"class_name": "Zeros", "config": {}}, "gamma_initializer": {"class_name": "Ones", "config": {}}, "moving_mean_initializer": {"class_name": "Zeros", "config": {}}, "moving_variance_initializer": {"class_name": "Ones", "config": {}}, "beta_regularizer": null, "gamma_regularizer": null, "beta_constraint": null, "gamma_constraint": null}, "name": "batch_normalization_1224", "inbound_nodes": [[["conv2d_1225", 0, 0, {}]]]}, {"class_name": "Activation", "config": {"name": "activation_1221", "trainable": true, "dtype": "float32", "activation": "relu"}, "name": "activation_1221", "inbound_nodes": [[["batch_normalization_1221", 0, 0, {}]]]}, {"class_name": "Activation", "config": {"name": "activation_1224", "trainable": true, "dtype": "float32", "activation": "relu"}, "name": "activation_1224", "inbound_nodes": [[["batch_normalization_1224", 0, 0, {}]]]}, {"class_name": "Conv2D", "config": {"name": "conv2d_1221", "trainable": true, "dtype": "float32", "filters": 32, "kernel_size": [1, 1], "strides": [1, 1], "padding": "same", "data_format": "channels_last", "dilation_rate": [1, 1], "groups": 1, "activation": "linear", "use_bias": false, "kernel_initializer": {"class_name": "GlorotUniform", "config": {"seed": null}}, "bias_initializer": {"class_name": "Zeros", "config": {}}, "kernel_regularizer": null, "bias_regularizer": null, "activity_regularizer": null, "kernel_constraint": null, "bias_constraint": null}, "name": "conv2d_1221", "inbound_nodes": [[["block35_8_ac", 0, 0, {}]]]}, {"class_name": "Conv2D", "config": {"name": "conv2d_1223", "trainable": true, "dtype": "float32", "filters": 32, "kernel_size": [3, 3], "strides": [1, 1], "padding": "same", "data_format": "channels_last", "dilation_rate": [1, 1], "groups": 1, "activation": "linear", "use_bias": false, "kernel_initializer": {"class_name": "GlorotUniform", "config": {"seed": null}}, "bias_initializer": {"class_name": "Zeros", "config": {}}, "kernel_regularizer": null, "bias_regularizer": null, "activity_regularizer": null, "kernel_constraint": null, "bias_constraint": null}, "name": "conv2d_1223", "inbound_nodes": [[["activation_1221", 0, 0, {}]]]}, {"class_name": "Conv2D", "config": {"name": "conv2d_1226", "trainable": true, "dtype": "float32", "filters": 64, "kernel_size": [3, 3], "strides": [1, 1], "padding": "same", "data_format": "channels_last", "dilation_rate": [1, 1], "groups": 1, "activation": "linear", "use_bias": false, "kernel_initializer": {"class_name": "GlorotUniform", "config": {"seed": null}}, "bias_initializer": {"class_name": "Zeros", "config": {}}, "kernel_regularizer": null, "bias_regularizer": null, "activity_regularizer": null, "kernel_constraint": null, "bias_constraint": null}, "name": "conv2d_1226", "inbound_nodes": [[["activation_1224", 0, 0, {}]]]}, {"class_name": "BatchNormalization", "config": {"name": "batch_normalization_1220", "trainable": true, "dtype": "float32", "axis": [3], "momentum": 0.99, "epsilon": 0.001, "center": true, "scale": false, "beta_initializer": {"class_name": "Zeros", "config": {}}, "gamma_initializer": {"class_name": "Ones", "config": {}}, "moving_mean_initializer": {"class_name": "Zeros", "config": {}}, "moving_variance_initializer": {"class_name": "Ones", "config": {}}, "beta_regularizer": null, "gamma_regularizer": null, "beta_constraint": null, "gamma_constraint": null}, "name": "batch_normalization_1220", "inbound_nodes": [[["conv2d_1221", 0, 0, {}]]]}, {"class_name": "BatchNormalization", "config": {"name": "batch_normalization_1222", "trainable": true, "dtype": "float32", "axis": [3], "momentum": 0.99, "epsilon": 0.001, "center": true, "scale": false, "beta_initializer": {"class_name": "Zeros", "config": {}}, "gamma_initializer": {"class_name": "Ones", "config": {}}, "moving_mean_initializer": {"class_name": "Zeros", "config": {}}, "moving_variance_initializer": {"class_name": "Ones", "config": {}}, "beta_regularizer": null, "gamma_regularizer": null, "beta_constraint": null, "gamma_constraint": null}, "name": "batch_normalization_1222", "inbound_nodes": [[["conv2d_1223", 0, 0, {}]]]}, {"class_name": "BatchNormalization", "config": {"name": "batch_normalization_1225", "trainable": true, "dtype": "float32", "axis": [3], "momentum": 0.99, "epsilon": 0.001, "center": true, "scale": false, "beta_initializer": {"class_name": "Zeros", "config": {}}, "gamma_initializer": {"class_name": "Ones", "config": {}}, "moving_mean_initializer": {"class_name": "Zeros", "config": {}}, "moving_variance_initializer": {"class_name": "Ones", "config": {}}, "beta_regularizer": null, "gamma_regularizer": null, "beta_constraint": null, "gamma_constraint": null}, "name": "batch_normalization_1225", "inbound_nodes": [[["conv2d_1226", 0, 0, {}]]]}, {"class_name": "Activation", "config": {"name": "activation_1220", "trainable": true, "dtype": "float32", "activation": "relu"}, "name": "activation_1220", "inbound_nodes": [[["batch_normalization_1220", 0, 0, {}]]]}, {"class_name": "Activation", "config": {"name": "activation_1222", "trainable": true, "dtype": "float32", "activation": "relu"}, "name": "activation_1222", "inbound_nodes": [[["batch_normalization_1222", 0, 0, {}]]]}, {"class_name": "Activation", "config": {"name": "activation_1225", "trainable": true, "dtype": "float32", "activation": "relu"}, "name": "activation_1225", "inbound_nodes": [[["batch_normalization_1225", 0, 0, {}]]]}, {"class_name": "Concatenate", "config": {"name": "block35_9_mixed", "trainable": true, "dtype": "float32", "axis": 3}, "name": "block35_9_mixed", "inbound_nodes": [[["activation_1220", 0, 0, {}], ["activation_1222", 0, 0, {}], ["activation_1225", 0, 0, {}]]]}, {"class_name": "Conv2D", "config": {"name": "block35_9_conv", "trainable": true, "dtype": "float32", "filters": 320, "kernel_size": [1, 1], "strides": [1, 1], "padding": "same", "data_format": "channels_last", "dilation_rate": [1, 1], "groups": 1, "activation": "linear", "use_bias": true, "kernel_initializer": {"class_name": "GlorotUniform", "config": {"seed": null}}, "bias_initializer": {"class_name": "Zeros", "config": {}}, "kernel_regularizer": null, "bias_regularizer": null, "activity_regularizer": null, "kernel_constraint": null, "bias_constraint": null}, "name": "block35_9_conv", "inbound_nodes": [[["block35_9_mixed", 0, 0, {}]]]}, {"class_name": "Lambda", "config": {"name": "block35_9", "trainable": true, "dtype": "float32", "function": ["4wIAAAAAAAAAAgAAAAMAAABTAAAAcxQAAAB8AGQBGQB8AGQCGQB8ARQAFwBTACkDTukAAAAA6QEA\nAACpACkC2gZpbnB1dHPaBXNjYWxlcgMAAAByAwAAAPpiL3Vzci9sb2NhbC9saWIvcHl0aG9uMy42\nL2Rpc3QtcGFja2FnZXMvdGVuc29yZmxvdy9weXRob24va2VyYXMvYXBwbGljYXRpb25zL2luY2Vw\ndGlvbl9yZXNuZXRfdjIucHnaCDxsYW1iZGE+dAEAAPMAAAAA\n", null, null], "function_type": "lambda", "module": "tensorflow.python.keras.applications.inception_resnet_v2", "output_shape": [35, 35, 320], "output_shape_type": "raw", "output_shape_module": null, "arguments": {"scale": 0.17}}, "name": "block35_9", "inbound_nodes": [[["block35_8_ac", 0, 0, {}], ["block35_9_conv", 0, 0, {}]]]}, {"class_name": "Activation", "config": {"name": "block35_9_ac", "trainable": true, "dtype": "float32", "activation": "relu"}, "name": "block35_9_ac", "inbound_nodes": [[["block35_9", 0, 0, {}]]]}, {"class_name": "Conv2D", "config": {"name": "conv2d_1230", "trainable": true, "dtype": "float32", "filters": 32, "kernel_size": [1, 1], "strides": [1, 1], "padding": "same", "data_format": "channels_last", "dilation_rate": [1, 1], "groups": 1, "activation": "linear", "use_bias": false, "kernel_initializer": {"class_name": "GlorotUniform", "config": {"seed": null}}, "bias_initializer": {"class_name": "Zeros", "config": {}}, "kernel_regularizer": null, "bias_regularizer": null, "activity_regularizer": null, "kernel_constraint": null, "bias_constraint": null}, "name": "conv2d_1230", "inbound_nodes": [[["block35_9_ac", 0, 0, {}]]]}, {"class_name": "BatchNormalization", "config": {"name": "batch_normalization_1229", "trainable": true, "dtype": "float32", "axis": [3], "momentum": 0.99, "epsilon": 0.001, "center": true, "scale": false, "beta_initializer": {"class_name": "Zeros", "config": {}}, "gamma_initializer": {"class_name": "Ones", "config": {}}, "moving_mean_initializer": {"class_name": "Zeros", "config": {}}, "moving_variance_initializer": {"class_name": "Ones", "config": {}}, "beta_regularizer": null, "gamma_regularizer": null, "beta_constraint": null, "gamma_constraint": null}, "name": "batch_normalization_1229", "inbound_nodes": [[["conv2d_1230", 0, 0, {}]]]}, {"class_name": "Activation", "config": {"name": "activation_1229", "trainable": true, "dtype": "float32", "activation": "relu"}, "name": "activation_1229", "inbound_nodes": [[["batch_normalization_1229", 0, 0, {}]]]}, {"class_name": "Conv2D", "config": {"name": "conv2d_1228", "trainable": true, "dtype": "float32", "filters": 32, "kernel_size": [1, 1], "strides": [1, 1], "padding": "same", "data_format": "channels_last", "dilation_rate": [1, 1], "groups": 1, "activation": "linear", "use_bias": false, "kernel_initializer": {"class_name": "GlorotUniform", "config": {"seed": null}}, "bias_initializer": {"class_name": "Zeros", "config": {}}, "kernel_regularizer": null, "bias_regularizer": null, "activity_regularizer": null, "kernel_constraint": null, "bias_constraint": null}, "name": "conv2d_1228", "inbound_nodes": [[["block35_9_ac", 0, 0, {}]]]}, {"class_name": "Conv2D", "config": {"name": "conv2d_1231", "trainable": true, "dtype": "float32", "filters": 48, "kernel_size": [3, 3], "strides": [1, 1], "padding": "same", "data_format": "channels_last", "dilation_rate": [1, 1], "groups": 1, "activation": "linear", "use_bias": false, "kernel_initializer": {"class_name": "GlorotUniform", "config": {"seed": null}}, "bias_initializer": {"class_name": "Zeros", "config": {}}, "kernel_regularizer": null, "bias_regularizer": null, "activity_regularizer": null, "kernel_constraint": null, "bias_constraint": null}, "name": "conv2d_1231", "inbound_nodes": [[["activation_1229", 0, 0, {}]]]}, {"class_name": "BatchNormalization", "config": {"name": "batch_normalization_1227", "trainable": true, "dtype": "float32", "axis": [3], "momentum": 0.99, "epsilon": 0.001, "center": true, "scale": false, "beta_initializer": {"class_name": "Zeros", "config": {}}, "gamma_initializer": {"class_name": "Ones", "config": {}}, "moving_mean_initializer": {"class_name": "Zeros", "config": {}}, "moving_variance_initializer": {"class_name": "Ones", "config": {}}, "beta_regularizer": null, "gamma_regularizer": null, "beta_constraint": null, "gamma_constraint": null}, "name": "batch_normalization_1227", "inbound_nodes": [[["conv2d_1228", 0, 0, {}]]]}, {"class_name": "BatchNormalization", "config": {"name": "batch_normalization_1230", "trainable": true, "dtype": "float32", "axis": [3], "momentum": 0.99, "epsilon": 0.001, "center": true, "scale": false, "beta_initializer": {"class_name": "Zeros", "config": {}}, "gamma_initializer": {"class_name": "Ones", "config": {}}, "moving_mean_initializer": {"class_name": "Zeros", "config": {}}, "moving_variance_initializer": {"class_name": "Ones", "config": {}}, "beta_regularizer": null, "gamma_regularizer": null, "beta_constraint": null, "gamma_constraint": null}, "name": "batch_normalization_1230", "inbound_nodes": [[["conv2d_1231", 0, 0, {}]]]}, {"class_name": "Activation", "config": {"name": "activation_1227", "trainable": true, "dtype": "float32", "activation": "relu"}, "name": "activation_1227", "inbound_nodes": [[["batch_normalization_1227", 0, 0, {}]]]}, {"class_name": "Activation", "config": {"name": "activation_1230", "trainable": true, "dtype": "float32", "activation": "relu"}, "name": "activation_1230", "inbound_nodes": [[["batch_normalization_1230", 0, 0, {}]]]}, {"class_name": "Conv2D", "config": {"name": "conv2d_1227", "trainable": true, "dtype": "float32", "filters": 32, "kernel_size": [1, 1], "strides": [1, 1], "padding": "same", "data_format": "channels_last", "dilation_rate": [1, 1], "groups": 1, "activation": "linear", "use_bias": false, "kernel_initializer": {"class_name": "GlorotUniform", "config": {"seed": null}}, "bias_initializer": {"class_name": "Zeros", "config": {}}, "kernel_regularizer": null, "bias_regularizer": null, "activity_regularizer": null, "kernel_constraint": null, "bias_constraint": null}, "name": "conv2d_1227", "inbound_nodes": [[["block35_9_ac", 0, 0, {}]]]}, {"class_name": "Conv2D", "config": {"name": "conv2d_1229", "trainable": true, "dtype": "float32", "filters": 32, "kernel_size": [3, 3], "strides": [1, 1], "padding": "same", "data_format": "channels_last", "dilation_rate": [1, 1], "groups": 1, "activation": "linear", "use_bias": false, "kernel_initializer": {"class_name": "GlorotUniform", "config": {"seed": null}}, "bias_initializer": {"class_name": "Zeros", "config": {}}, "kernel_regularizer": null, "bias_regularizer": null, "activity_regularizer": null, "kernel_constraint": null, "bias_constraint": null}, "name": "conv2d_1229", "inbound_nodes": [[["activation_1227", 0, 0, {}]]]}, {"class_name": "Conv2D", "config": {"name": "conv2d_1232", "trainable": true, "dtype": "float32", "filters": 64, "kernel_size": [3, 3], "strides": [1, 1], "padding": "same", "data_format": "channels_last", "dilation_rate": [1, 1], "groups": 1, "activation": "linear", "use_bias": false, "kernel_initializer": {"class_name": "GlorotUniform", "config": {"seed": null}}, "bias_initializer": {"class_name": "Zeros", "config": {}}, "kernel_regularizer": null, "bias_regularizer": null, "activity_regularizer": null, "kernel_constraint": null, "bias_constraint": null}, "name": "conv2d_1232", "inbound_nodes": [[["activation_1230", 0, 0, {}]]]}, {"class_name": "BatchNormalization", "config": {"name": "batch_normalization_1226", "trainable": true, "dtype": "float32", "axis": [3], "momentum": 0.99, "epsilon": 0.001, "center": true, "scale": false, "beta_initializer": {"class_name": "Zeros", "config": {}}, "gamma_initializer": {"class_name": "Ones", "config": {}}, "moving_mean_initializer": {"class_name": "Zeros", "config": {}}, "moving_variance_initializer": {"class_name": "Ones", "config": {}}, "beta_regularizer": null, "gamma_regularizer": null, "beta_constraint": null, "gamma_constraint": null}, "name": "batch_normalization_1226", "inbound_nodes": [[["conv2d_1227", 0, 0, {}]]]}, {"class_name": "BatchNormalization", "config": {"name": "batch_normalization_1228", "trainable": true, "dtype": "float32", "axis": [3], "momentum": 0.99, "epsilon": 0.001, "center": true, "scale": false, "beta_initializer": {"class_name": "Zeros", "config": {}}, "gamma_initializer": {"class_name": "Ones", "config": {}}, "moving_mean_initializer": {"class_name": "Zeros", "config": {}}, "moving_variance_initializer": {"class_name": "Ones", "config": {}}, "beta_regularizer": null, "gamma_regularizer": null, "beta_constraint": null, "gamma_constraint": null}, "name": "batch_normalization_1228", "inbound_nodes": [[["conv2d_1229", 0, 0, {}]]]}, {"class_name": "BatchNormalization", "config": {"name": "batch_normalization_1231", "trainable": true, "dtype": "float32", "axis": [3], "momentum": 0.99, "epsilon": 0.001, "center": true, "scale": false, "beta_initializer": {"class_name": "Zeros", "config": {}}, "gamma_initializer": {"class_name": "Ones", "config": {}}, "moving_mean_initializer": {"class_name": "Zeros", "config": {}}, "moving_variance_initializer": {"class_name": "Ones", "config": {}}, "beta_regularizer": null, "gamma_regularizer": null, "beta_constraint": null, "gamma_constraint": null}, "name": "batch_normalization_1231", "inbound_nodes": [[["conv2d_1232", 0, 0, {}]]]}, {"class_name": "Activation", "config": {"name": "activation_1226", "trainable": true, "dtype": "float32", "activation": "relu"}, "name": "activation_1226", "inbound_nodes": [[["batch_normalization_1226", 0, 0, {}]]]}, {"class_name": "Activation", "config": {"name": "activation_1228", "trainable": true, "dtype": "float32", "activation": "relu"}, "name": "activation_1228", "inbound_nodes": [[["batch_normalization_1228", 0, 0, {}]]]}, {"class_name": "Activation", "config": {"name": "activation_1231", "trainable": true, "dtype": "float32", "activation": "relu"}, "name": "activation_1231", "inbound_nodes": [[["batch_normalization_1231", 0, 0, {}]]]}, {"class_name": "Concatenate", "config": {"name": "block35_10_mixed", "trainable": true, "dtype": "float32", "axis": 3}, "name": "block35_10_mixed", "inbound_nodes": [[["activation_1226", 0, 0, {}], ["activation_1228", 0, 0, {}], ["activation_1231", 0, 0, {}]]]}, {"class_name": "Conv2D", "config": {"name": "block35_10_conv", "trainable": true, "dtype": "float32", "filters": 320, "kernel_size": [1, 1], "strides": [1, 1], "padding": "same", "data_format": "channels_last", "dilation_rate": [1, 1], "groups": 1, "activation": "linear", "use_bias": true, "kernel_initializer": {"class_name": "GlorotUniform", "config": {"seed": null}}, "bias_initializer": {"class_name": "Zeros", "config": {}}, "kernel_regularizer": null, "bias_regularizer": null, "activity_regularizer": null, "kernel_constraint": null, "bias_constraint": null}, "name": "block35_10_conv", "inbound_nodes": [[["block35_10_mixed", 0, 0, {}]]]}, {"class_name": "Lambda", "config": {"name": "block35_10", "trainable": true, "dtype": "float32", "function": ["4wIAAAAAAAAAAgAAAAMAAABTAAAAcxQAAAB8AGQBGQB8AGQCGQB8ARQAFwBTACkDTukAAAAA6QEA\nAACpACkC2gZpbnB1dHPaBXNjYWxlcgMAAAByAwAAAPpiL3Vzci9sb2NhbC9saWIvcHl0aG9uMy42\nL2Rpc3QtcGFja2FnZXMvdGVuc29yZmxvdy9weXRob24va2VyYXMvYXBwbGljYXRpb25zL2luY2Vw\ndGlvbl9yZXNuZXRfdjIucHnaCDxsYW1iZGE+dAEAAPMAAAAA\n", null, null], "function_type": "lambda", "module": "tensorflow.python.keras.applications.inception_resnet_v2", "output_shape": [35, 35, 320], "output_shape_type": "raw", "output_shape_module": null, "arguments": {"scale": 0.17}}, "name": "block35_10", "inbound_nodes": [[["block35_9_ac", 0, 0, {}], ["block35_10_conv", 0, 0, {}]]]}, {"class_name": "Activation", "config": {"name": "block35_10_ac", "trainable": true, "dtype": "float32", "activation": "relu"}, "name": "block35_10_ac", "inbound_nodes": [[["block35_10", 0, 0, {}]]]}, {"class_name": "Conv2D", "config": {"name": "conv2d_1234", "trainable": true, "dtype": "float32", "filters": 256, "kernel_size": [1, 1], "strides": [1, 1], "padding": "same", "data_format": "channels_last", "dilation_rate": [1, 1], "groups": 1, "activation": "linear", "use_bias": false, "kernel_initializer": {"class_name": "GlorotUniform", "config": {"seed": null}}, "bias_initializer": {"class_name": "Zeros", "config": {}}, "kernel_regularizer": null, "bias_regularizer": null, "activity_regularizer": null, "kernel_constraint": null, "bias_constraint": null}, "name": "conv2d_1234", "inbound_nodes": [[["block35_10_ac", 0, 0, {}]]]}, {"class_name": "BatchNormalization", "config": {"name": "batch_normalization_1233", "trainable": true, "dtype": "float32", "axis": [3], "momentum": 0.99, "epsilon": 0.001, "center": true, "scale": false, "beta_initializer": {"class_name": "Zeros", "config": {}}, "gamma_initializer": {"class_name": "Ones", "config": {}}, "moving_mean_initializer": {"class_name": "Zeros", "config": {}}, "moving_variance_initializer": {"class_name": "Ones", "config": {}}, "beta_regularizer": null, "gamma_regularizer": null, "beta_constraint": null, "gamma_constraint": null}, "name": "batch_normalization_1233", "inbound_nodes": [[["conv2d_1234", 0, 0, {}]]]}, {"class_name": "Activation", "config": {"name": "activation_1233", "trainable": true, "dtype": "float32", "activation": "relu"}, "name": "activation_1233", "inbound_nodes": [[["batch_normalization_1233", 0, 0, {}]]]}, {"class_name": "Conv2D", "config": {"name": "conv2d_1235", "trainable": true, "dtype": "float32", "filters": 256, "kernel_size": [3, 3], "strides": [1, 1], "padding": "same", "data_format": "channels_last", "dilation_rate": [1, 1], "groups": 1, "activation": "linear", "use_bias": false, "kernel_initializer": {"class_name": "GlorotUniform", "config": {"seed": null}}, "bias_initializer": {"class_name": "Zeros", "config": {}}, "kernel_regularizer": null, "bias_regularizer": null, "activity_regularizer": null, "kernel_constraint": null, "bias_constraint": null}, "name": "conv2d_1235", "inbound_nodes": [[["activation_1233", 0, 0, {}]]]}, {"class_name": "BatchNormalization", "config": {"name": "batch_normalization_1234", "trainable": true, "dtype": "float32", "axis": [3], "momentum": 0.99, "epsilon": 0.001, "center": true, "scale": false, "beta_initializer": {"class_name": "Zeros", "config": {}}, "gamma_initializer": {"class_name": "Ones", "config": {}}, "moving_mean_initializer": {"class_name": "Zeros", "config": {}}, "moving_variance_initializer": {"class_name": "Ones", "config": {}}, "beta_regularizer": null, "gamma_regularizer": null, "beta_constraint": null, "gamma_constraint": null}, "name": "batch_normalization_1234", "inbound_nodes": [[["conv2d_1235", 0, 0, {}]]]}, {"class_name": "Activation", "config": {"name": "activation_1234", "trainable": true, "dtype": "float32", "activation": "relu"}, "name": "activation_1234", "inbound_nodes": [[["batch_normalization_1234", 0, 0, {}]]]}, {"class_name": "Conv2D", "config": {"name": "conv2d_1233", "trainable": true, "dtype": "float32", "filters": 384, "kernel_size": [3, 3], "strides": [2, 2], "padding": "valid", "data_format": "channels_last", "dilation_rate": [1, 1], "groups": 1, "activation": "linear", "use_bias": false, "kernel_initializer": {"class_name": "GlorotUniform", "config": {"seed": null}}, "bias_initializer": {"class_name": "Zeros", "config": {}}, "kernel_regularizer": null, "bias_regularizer": null, "activity_regularizer": null, "kernel_constraint": null, "bias_constraint": null}, "name": "conv2d_1233", "inbound_nodes": [[["block35_10_ac", 0, 0, {}]]]}, {"class_name": "Conv2D", "config": {"name": "conv2d_1236", "trainable": true, "dtype": "float32", "filters": 384, "kernel_size": [3, 3], "strides": [2, 2], "padding": "valid", "data_format": "channels_last", "dilation_rate": [1, 1], "groups": 1, "activation": "linear", "use_bias": false, "kernel_initializer": {"class_name": "GlorotUniform", "config": {"seed": null}}, "bias_initializer": {"class_name": "Zeros", "config": {}}, "kernel_regularizer": null, "bias_regularizer": null, "activity_regularizer": null, "kernel_constraint": null, "bias_constraint": null}, "name": "conv2d_1236", "inbound_nodes": [[["activation_1234", 0, 0, {}]]]}, {"class_name": "BatchNormalization", "config": {"name": "batch_normalization_1232", "trainable": true, "dtype": "float32", "axis": [3], "momentum": 0.99, "epsilon": 0.001, "center": true, "scale": false, "beta_initializer": {"class_name": "Zeros", "config": {}}, "gamma_initializer": {"class_name": "Ones", "config": {}}, "moving_mean_initializer": {"class_name": "Zeros", "config": {}}, "moving_variance_initializer": {"class_name": "Ones", "config": {}}, "beta_regularizer": null, "gamma_regularizer": null, "beta_constraint": null, "gamma_constraint": null}, "name": "batch_normalization_1232", "inbound_nodes": [[["conv2d_1233", 0, 0, {}]]]}, {"class_name": "BatchNormalization", "config": {"name": "batch_normalization_1235", "trainable": true, "dtype": "float32", "axis": [3], "momentum": 0.99, "epsilon": 0.001, "center": true, "scale": false, "beta_initializer": {"class_name": "Zeros", "config": {}}, "gamma_initializer": {"class_name": "Ones", "config": {}}, "moving_mean_initializer": {"class_name": "Zeros", "config": {}}, "moving_variance_initializer": {"class_name": "Ones", "config": {}}, "beta_regularizer": null, "gamma_regularizer": null, "beta_constraint": null, "gamma_constraint": null}, "name": "batch_normalization_1235", "inbound_nodes": [[["conv2d_1236", 0, 0, {}]]]}, {"class_name": "Activation", "config": {"name": "activation_1232", "trainable": true, "dtype": "float32", "activation": "relu"}, "name": "activation_1232", "inbound_nodes": [[["batch_normalization_1232", 0, 0, {}]]]}, {"class_name": "Activation", "config": {"name": "activation_1235", "trainable": true, "dtype": "float32", "activation": "relu"}, "name": "activation_1235", "inbound_nodes": [[["batch_normalization_1235", 0, 0, {}]]]}, {"class_name": "MaxPooling2D", "config": {"name": "max_pooling2d_25", "trainable": true, "dtype": "float32", "pool_size": [3, 3], "padding": "valid", "strides": [2, 2], "data_format": "channels_last"}, "name": "max_pooling2d_25", "inbound_nodes": [[["block35_10_ac", 0, 0, {}]]]}, {"class_name": "Concatenate", "config": {"name": "mixed_6a", "trainable": true, "dtype": "float32", "axis": 3}, "name": "mixed_6a", "inbound_nodes": [[["activation_1232", 0, 0, {}], ["activation_1235", 0, 0, {}], ["max_pooling2d_25", 0, 0, {}]]]}, {"class_name": "Conv2D", "config": {"name": "conv2d_1238", "trainable": true, "dtype": "float32", "filters": 128, "kernel_size": [1, 1], "strides": [1, 1], "padding": "same", "data_format": "channels_last", "dilation_rate": [1, 1], "groups": 1, "activation": "linear", "use_bias": false, "kernel_initializer": {"class_name": "GlorotUniform", "config": {"seed": null}}, "bias_initializer": {"class_name": "Zeros", "config": {}}, "kernel_regularizer": null, "bias_regularizer": null, "activity_regularizer": null, "kernel_constraint": null, "bias_constraint": null}, "name": "conv2d_1238", "inbound_nodes": [[["mixed_6a", 0, 0, {}]]]}, {"class_name": "BatchNormalization", "config": {"name": "batch_normalization_1237", "trainable": true, "dtype": "float32", "axis": [3], "momentum": 0.99, "epsilon": 0.001, "center": true, "scale": false, "beta_initializer": {"class_name": "Zeros", "config": {}}, "gamma_initializer": {"class_name": "Ones", "config": {}}, "moving_mean_initializer": {"class_name": "Zeros", "config": {}}, "moving_variance_initializer": {"class_name": "Ones", "config": {}}, "beta_regularizer": null, "gamma_regularizer": null, "beta_constraint": null, "gamma_constraint": null}, "name": "batch_normalization_1237", "inbound_nodes": [[["conv2d_1238", 0, 0, {}]]]}, {"class_name": "Activation", "config": {"name": "activation_1237", "trainable": true, "dtype": "float32", "activation": "relu"}, "name": "activation_1237", "inbound_nodes": [[["batch_normalization_1237", 0, 0, {}]]]}, {"class_name": "Conv2D", "config": {"name": "conv2d_1239", "trainable": true, "dtype": "float32", "filters": 160, "kernel_size": [1, 7], "strides": [1, 1], "padding": "same", "data_format": "channels_last", "dilation_rate": [1, 1], "groups": 1, "activation": "linear", "use_bias": false, "kernel_initializer": {"class_name": "GlorotUniform", "config": {"seed": null}}, "bias_initializer": {"class_name": "Zeros", "config": {}}, "kernel_regularizer": null, "bias_regularizer": null, "activity_regularizer": null, "kernel_constraint": null, "bias_constraint": null}, "name": "conv2d_1239", "inbound_nodes": [[["activation_1237", 0, 0, {}]]]}, {"class_name": "BatchNormalization", "config": {"name": "batch_normalization_1238", "trainable": true, "dtype": "float32", "axis": [3], "momentum": 0.99, "epsilon": 0.001, "center": true, "scale": false, "beta_initializer": {"class_name": "Zeros", "config": {}}, "gamma_initializer": {"class_name": "Ones", "config": {}}, "moving_mean_initializer": {"class_name": "Zeros", "config": {}}, "moving_variance_initializer": {"class_name": "Ones", "config": {}}, "beta_regularizer": null, "gamma_regularizer": null, "beta_constraint": null, "gamma_constraint": null}, "name": "batch_normalization_1238", "inbound_nodes": [[["conv2d_1239", 0, 0, {}]]]}, {"class_name": "Activation", "config": {"name": "activation_1238", "trainable": true, "dtype": "float32", "activation": "relu"}, "name": "activation_1238", "inbound_nodes": [[["batch_normalization_1238", 0, 0, {}]]]}, {"class_name": "Conv2D", "config": {"name": "conv2d_1237", "trainable": true, "dtype": "float32", "filters": 192, "kernel_size": [1, 1], "strides": [1, 1], "padding": "same", "data_format": "channels_last", "dilation_rate": [1, 1], "groups": 1, "activation": "linear", "use_bias": false, "kernel_initializer": {"class_name": "GlorotUniform", "config": {"seed": null}}, "bias_initializer": {"class_name": "Zeros", "config": {}}, "kernel_regularizer": null, "bias_regularizer": null, "activity_regularizer": null, "kernel_constraint": null, "bias_constraint": null}, "name": "conv2d_1237", "inbound_nodes": [[["mixed_6a", 0, 0, {}]]]}, {"class_name": "Conv2D", "config": {"name": "conv2d_1240", "trainable": true, "dtype": "float32", "filters": 192, "kernel_size": [7, 1], "strides": [1, 1], "padding": "same", "data_format": "channels_last", "dilation_rate": [1, 1], "groups": 1, "activation": "linear", "use_bias": false, "kernel_initializer": {"class_name": "GlorotUniform", "config": {"seed": null}}, "bias_initializer": {"class_name": "Zeros", "config": {}}, "kernel_regularizer": null, "bias_regularizer": null, "activity_regularizer": null, "kernel_constraint": null, "bias_constraint": null}, "name": "conv2d_1240", "inbound_nodes": [[["activation_1238", 0, 0, {}]]]}, {"class_name": "BatchNormalization", "config": {"name": "batch_normalization_1236", "trainable": true, "dtype": "float32", "axis": [3], "momentum": 0.99, "epsilon": 0.001, "center": true, "scale": false, "beta_initializer": {"class_name": "Zeros", "config": {}}, "gamma_initializer": {"class_name": "Ones", "config": {}}, "moving_mean_initializer": {"class_name": "Zeros", "config": {}}, "moving_variance_initializer": {"class_name": "Ones", "config": {}}, "beta_regularizer": null, "gamma_regularizer": null, "beta_constraint": null, "gamma_constraint": null}, "name": "batch_normalization_1236", "inbound_nodes": [[["conv2d_1237", 0, 0, {}]]]}, {"class_name": "BatchNormalization", "config": {"name": "batch_normalization_1239", "trainable": true, "dtype": "float32", "axis": [3], "momentum": 0.99, "epsilon": 0.001, "center": true, "scale": false, "beta_initializer": {"class_name": "Zeros", "config": {}}, "gamma_initializer": {"class_name": "Ones", "config": {}}, "moving_mean_initializer": {"class_name": "Zeros", "config": {}}, "moving_variance_initializer": {"class_name": "Ones", "config": {}}, "beta_regularizer": null, "gamma_regularizer": null, "beta_constraint": null, "gamma_constraint": null}, "name": "batch_normalization_1239", "inbound_nodes": [[["conv2d_1240", 0, 0, {}]]]}, {"class_name": "Activation", "config": {"name": "activation_1236", "trainable": true, "dtype": "float32", "activation": "relu"}, "name": "activation_1236", "inbound_nodes": [[["batch_normalization_1236", 0, 0, {}]]]}, {"class_name": "Activation", "config": {"name": "activation_1239", "trainable": true, "dtype": "float32", "activation": "relu"}, "name": "activation_1239", "inbound_nodes": [[["batch_normalization_1239", 0, 0, {}]]]}, {"class_name": "Concatenate", "config": {"name": "block17_1_mixed", "trainable": true, "dtype": "float32", "axis": 3}, "name": "block17_1_mixed", "inbound_nodes": [[["activation_1236", 0, 0, {}], ["activation_1239", 0, 0, {}]]]}, {"class_name": "Conv2D", "config": {"name": "block17_1_conv", "trainable": true, "dtype": "float32", "filters": 1088, "kernel_size": [1, 1], "strides": [1, 1], "padding": "same", "data_format": "channels_last", "dilation_rate": [1, 1], "groups": 1, "activation": "linear", "use_bias": true, "kernel_initializer": {"class_name": "GlorotUniform", "config": {"seed": null}}, "bias_initializer": {"class_name": "Zeros", "config": {}}, "kernel_regularizer": null, "bias_regularizer": null, "activity_regularizer": null, "kernel_constraint": null, "bias_constraint": null}, "name": "block17_1_conv", "inbound_nodes": [[["block17_1_mixed", 0, 0, {}]]]}, {"class_name": "Lambda", "config": {"name": "block17_1", "trainable": true, "dtype": "float32", "function": ["4wIAAAAAAAAAAgAAAAMAAABTAAAAcxQAAAB8AGQBGQB8AGQCGQB8ARQAFwBTACkDTukAAAAA6QEA\nAACpACkC2gZpbnB1dHPaBXNjYWxlcgMAAAByAwAAAPpiL3Vzci9sb2NhbC9saWIvcHl0aG9uMy42\nL2Rpc3QtcGFja2FnZXMvdGVuc29yZmxvdy9weXRob24va2VyYXMvYXBwbGljYXRpb25zL2luY2Vw\ndGlvbl9yZXNuZXRfdjIucHnaCDxsYW1iZGE+dAEAAPMAAAAA\n", null, null], "function_type": "lambda", "module": "tensorflow.python.keras.applications.inception_resnet_v2", "output_shape": [17, 17, 1088], "output_shape_type": "raw", "output_shape_module": null, "arguments": {"scale": 0.1}}, "name": "block17_1", "inbound_nodes": [[["mixed_6a", 0, 0, {}], ["block17_1_conv", 0, 0, {}]]]}, {"class_name": "Activation", "config": {"name": "block17_1_ac", "trainable": true, "dtype": "float32", "activation": "relu"}, "name": "block17_1_ac", "inbound_nodes": [[["block17_1", 0, 0, {}]]]}, {"class_name": "Conv2D", "config": {"name": "conv2d_1242", "trainable": true, "dtype": "float32", "filters": 128, "kernel_size": [1, 1], "strides": [1, 1], "padding": "same", "data_format": "channels_last", "dilation_rate": [1, 1], "groups": 1, "activation": "linear", "use_bias": false, "kernel_initializer": {"class_name": "GlorotUniform", "config": {"seed": null}}, "bias_initializer": {"class_name": "Zeros", "config": {}}, "kernel_regularizer": null, "bias_regularizer": null, "activity_regularizer": null, "kernel_constraint": null, "bias_constraint": null}, "name": "conv2d_1242", "inbound_nodes": [[["block17_1_ac", 0, 0, {}]]]}, {"class_name": "BatchNormalization", "config": {"name": "batch_normalization_1241", "trainable": true, "dtype": "float32", "axis": [3], "momentum": 0.99, "epsilon": 0.001, "center": true, "scale": false, "beta_initializer": {"class_name": "Zeros", "config": {}}, "gamma_initializer": {"class_name": "Ones", "config": {}}, "moving_mean_initializer": {"class_name": "Zeros", "config": {}}, "moving_variance_initializer": {"class_name": "Ones", "config": {}}, "beta_regularizer": null, "gamma_regularizer": null, "beta_constraint": null, "gamma_constraint": null}, "name": "batch_normalization_1241", "inbound_nodes": [[["conv2d_1242", 0, 0, {}]]]}, {"class_name": "Activation", "config": {"name": "activation_1241", "trainable": true, "dtype": "float32", "activation": "relu"}, "name": "activation_1241", "inbound_nodes": [[["batch_normalization_1241", 0, 0, {}]]]}, {"class_name": "Conv2D", "config": {"name": "conv2d_1243", "trainable": true, "dtype": "float32", "filters": 160, "kernel_size": [1, 7], "strides": [1, 1], "padding": "same", "data_format": "channels_last", "dilation_rate": [1, 1], "groups": 1, "activation": "linear", "use_bias": false, "kernel_initializer": {"class_name": "GlorotUniform", "config": {"seed": null}}, "bias_initializer": {"class_name": "Zeros", "config": {}}, "kernel_regularizer": null, "bias_regularizer": null, "activity_regularizer": null, "kernel_constraint": null, "bias_constraint": null}, "name": "conv2d_1243", "inbound_nodes": [[["activation_1241", 0, 0, {}]]]}, {"class_name": "BatchNormalization", "config": {"name": "batch_normalization_1242", "trainable": true, "dtype": "float32", "axis": [3], "momentum": 0.99, "epsilon": 0.001, "center": true, "scale": false, "beta_initializer": {"class_name": "Zeros", "config": {}}, "gamma_initializer": {"class_name": "Ones", "config": {}}, "moving_mean_initializer": {"class_name": "Zeros", "config": {}}, "moving_variance_initializer": {"class_name": "Ones", "config": {}}, "beta_regularizer": null, "gamma_regularizer": null, "beta_constraint": null, "gamma_constraint": null}, "name": "batch_normalization_1242", "inbound_nodes": [[["conv2d_1243", 0, 0, {}]]]}, {"class_name": "Activation", "config": {"name": "activation_1242", "trainable": true, "dtype": "float32", "activation": "relu"}, "name": "activation_1242", "inbound_nodes": [[["batch_normalization_1242", 0, 0, {}]]]}, {"class_name": "Conv2D", "config": {"name": "conv2d_1241", "trainable": true, "dtype": "float32", "filters": 192, "kernel_size": [1, 1], "strides": [1, 1], "padding": "same", "data_format": "channels_last", "dilation_rate": [1, 1], "groups": 1, "activation": "linear", "use_bias": false, "kernel_initializer": {"class_name": "GlorotUniform", "config": {"seed": null}}, "bias_initializer": {"class_name": "Zeros", "config": {}}, "kernel_regularizer": null, "bias_regularizer": null, "activity_regularizer": null, "kernel_constraint": null, "bias_constraint": null}, "name": "conv2d_1241", "inbound_nodes": [[["block17_1_ac", 0, 0, {}]]]}, {"class_name": "Conv2D", "config": {"name": "conv2d_1244", "trainable": true, "dtype": "float32", "filters": 192, "kernel_size": [7, 1], "strides": [1, 1], "padding": "same", "data_format": "channels_last", "dilation_rate": [1, 1], "groups": 1, "activation": "linear", "use_bias": false, "kernel_initializer": {"class_name": "GlorotUniform", "config": {"seed": null}}, "bias_initializer": {"class_name": "Zeros", "config": {}}, "kernel_regularizer": null, "bias_regularizer": null, "activity_regularizer": null, "kernel_constraint": null, "bias_constraint": null}, "name": "conv2d_1244", "inbound_nodes": [[["activation_1242", 0, 0, {}]]]}, {"class_name": "BatchNormalization", "config": {"name": "batch_normalization_1240", "trainable": true, "dtype": "float32", "axis": [3], "momentum": 0.99, "epsilon": 0.001, "center": true, "scale": false, "beta_initializer": {"class_name": "Zeros", "config": {}}, "gamma_initializer": {"class_name": "Ones", "config": {}}, "moving_mean_initializer": {"class_name": "Zeros", "config": {}}, "moving_variance_initializer": {"class_name": "Ones", "config": {}}, "beta_regularizer": null, "gamma_regularizer": null, "beta_constraint": null, "gamma_constraint": null}, "name": "batch_normalization_1240", "inbound_nodes": [[["conv2d_1241", 0, 0, {}]]]}, {"class_name": "BatchNormalization", "config": {"name": "batch_normalization_1243", "trainable": true, "dtype": "float32", "axis": [3], "momentum": 0.99, "epsilon": 0.001, "center": true, "scale": false, "beta_initializer": {"class_name": "Zeros", "config": {}}, "gamma_initializer": {"class_name": "Ones", "config": {}}, "moving_mean_initializer": {"class_name": "Zeros", "config": {}}, "moving_variance_initializer": {"class_name": "Ones", "config": {}}, "beta_regularizer": null, "gamma_regularizer": null, "beta_constraint": null, "gamma_constraint": null}, "name": "batch_normalization_1243", "inbound_nodes": [[["conv2d_1244", 0, 0, {}]]]}, {"class_name": "Activation", "config": {"name": "activation_1240", "trainable": true, "dtype": "float32", "activation": "relu"}, "name": "activation_1240", "inbound_nodes": [[["batch_normalization_1240", 0, 0, {}]]]}, {"class_name": "Activation", "config": {"name": "activation_1243", "trainable": true, "dtype": "float32", "activation": "relu"}, "name": "activation_1243", "inbound_nodes": [[["batch_normalization_1243", 0, 0, {}]]]}, {"class_name": "Concatenate", "config": {"name": "block17_2_mixed", "trainable": true, "dtype": "float32", "axis": 3}, "name": "block17_2_mixed", "inbound_nodes": [[["activation_1240", 0, 0, {}], ["activation_1243", 0, 0, {}]]]}, {"class_name": "Conv2D", "config": {"name": "block17_2_conv", "trainable": true, "dtype": "float32", "filters": 1088, "kernel_size": [1, 1], "strides": [1, 1], "padding": "same", "data_format": "channels_last", "dilation_rate": [1, 1], "groups": 1, "activation": "linear", "use_bias": true, "kernel_initializer": {"class_name": "GlorotUniform", "config": {"seed": null}}, "bias_initializer": {"class_name": "Zeros", "config": {}}, "kernel_regularizer": null, "bias_regularizer": null, "activity_regularizer": null, "kernel_constraint": null, "bias_constraint": null}, "name": "block17_2_conv", "inbound_nodes": [[["block17_2_mixed", 0, 0, {}]]]}, {"class_name": "Lambda", "config": {"name": "block17_2", "trainable": true, "dtype": "float32", "function": ["4wIAAAAAAAAAAgAAAAMAAABTAAAAcxQAAAB8AGQBGQB8AGQCGQB8ARQAFwBTACkDTukAAAAA6QEA\nAACpACkC2gZpbnB1dHPaBXNjYWxlcgMAAAByAwAAAPpiL3Vzci9sb2NhbC9saWIvcHl0aG9uMy42\nL2Rpc3QtcGFja2FnZXMvdGVuc29yZmxvdy9weXRob24va2VyYXMvYXBwbGljYXRpb25zL2luY2Vw\ndGlvbl9yZXNuZXRfdjIucHnaCDxsYW1iZGE+dAEAAPMAAAAA\n", null, null], "function_type": "lambda", "module": "tensorflow.python.keras.applications.inception_resnet_v2", "output_shape": [17, 17, 1088], "output_shape_type": "raw", "output_shape_module": null, "arguments": {"scale": 0.1}}, "name": "block17_2", "inbound_nodes": [[["block17_1_ac", 0, 0, {}], ["block17_2_conv", 0, 0, {}]]]}, {"class_name": "Activati…
zer": null, "activity_regularizer": null, "kernel_constraint": null, "bias_constraint": null}, "name": "block8_4_conv", "inbound_nodes": [[["block8_4_mixed", 0, 0, {}]]]}, {"class_name": "Lambda", "config": {"name": "block8_4", "trainable": true, "dtype": "float32", "function": ["4wIAAAAAAAAAAgAAAAMAAABTAAAAcxQAAAB8AGQBGQB8AGQCGQB8ARQAFwBTACkDTukAAAAA6QEA\nAACpACkC2gZpbnB1dHPaBXNjYWxlcgMAAAByAwAAAPpiL3Vzci9sb2NhbC9saWIvcHl0aG9uMy42\nL2Rpc3QtcGFja2FnZXMvdGVuc29yZmxvdy9weXRob24va2VyYXMvYXBwbGljYXRpb25zL2luY2Vw\ndGlvbl9yZXNuZXRfdjIucHnaCDxsYW1iZGE+dAEAAPMAAAAA\n", null, null], "function_type": "lambda", "module": "tensorflow.python.keras.applications.inception_resnet_v2", "output_shape": [8, 8, 2080], "output_shape_type": "raw", "output_shape_module": null, "arguments": {"scale": 0.2}}, "name": "block8_4", "inbound_nodes": [[["block8_3_ac", 0, 0, {}], ["block8_4_conv", 0, 0, {}]]]}, {"class_name": "Activation", "config": {"name": "block8_4_ac", "trainable": true, "dtype": "float32", "activation": "relu"}, "name": "block8_4_ac", "inbound_nodes": [[["block8_4", 0, 0, {}]]]}, {"class_name": "Conv2D", "config": {"name": "conv2d_1341", "trainable": true, "dtype": "float32", "filters": 192, "kernel_size": [1, 1], "strides": [1, 1], "padding": "same", "data_format": "channels_last", "dilation_rate": [1, 1], "groups": 1, "activation": "linear", "use_bias": false, "kernel_initializer": {"class_name": "GlorotUniform", "config": {"seed": null}}, "bias_initializer": {"class_name": "Zeros", "config": {}}, "kernel_regularizer": null, "bias_regularizer": null, "activity_regularizer": null, "kernel_constraint": null, "bias_constraint": null}, "name": "conv2d_1341", "inbound_nodes": [[["block8_4_ac", 0, 0, {}]]]}, {"class_name": "BatchNormalization", "config": {"name": "batch_normalization_1340", "trainable": true, "dtype": "float32", "axis": [3], "momentum": 0.99, "epsilon": 0.001, "center": true, "scale": false, "beta_initializer": {"class_name": "Zeros", "config": {}}, "gamma_initializer": {"class_name": "Ones", "config": {}}, "moving_mean_initializer": {"class_name": "Zeros", "config": {}}, "moving_variance_initializer": {"class_name": "Ones", "config": {}}, "beta_regularizer": null, "gamma_regularizer": null, "beta_constraint": null, "gamma_constraint": null}, "name": "batch_normalization_1340", "inbound_nodes": [[["conv2d_1341", 0, 0, {}]]]}, {"class_name": "Activation", "config": {"name": "activation_1340", "trainable": true, "dtype": "float32", "activation": "relu"}, "name": "activation_1340", "inbound_nodes": [[["batch_normalization_1340", 0, 0, {}]]]}, {"class_name": "Conv2D", "config": {"name": "conv2d_1342", "trainable": true, "dtype": "float32", "filters": 224, "kernel_size": [1, 3], "strides": [1, 1], "padding": "same", "data_format": "channels_last", "dilation_rate": [1, 1], "groups": 1, "activation": "linear", "use_bias": false, "kernel_initializer": {"class_name": "GlorotUniform", "config": {"seed": null}}, "bias_initializer": {"class_name": "Zeros", "config": {}}, "kernel_regularizer": null, "bias_regularizer": null, "activity_regularizer": null, "kernel_constraint": null, "bias_constraint": null}, "name": "conv2d_1342", "inbound_nodes": [[["activation_1340", 0, 0, {}]]]}, {"class_name": "BatchNormalization", "config": {"name": "batch_normalization_1341", "trainable": true, "dtype": "float32", "axis": [3], "momentum": 0.99, "epsilon": 0.001, "center": true, "scale": false, "beta_initializer": {"class_name": "Zeros", "config": {}}, "gamma_initializer": {"class_name": "Ones", "config": {}}, "moving_mean_initializer": {"class_name": "Zeros", "config": {}}, "moving_variance_initializer": {"class_name": "Ones", "config": {}}, "beta_regularizer": null, "gamma_regularizer": null, "beta_constraint": null, "gamma_constraint": null}, "name": "batch_normalization_1341", "inbound_nodes": [[["conv2d_1342", 0, 0, {}]]]}, {"class_name": "Activation", "config": {"name": "activation_1341", "trainable": true, "dtype": "float32", "activation": "relu"}, "name": "activation_1341", "inbound_nodes": [[["batch_normalization_1341", 0, 0, {}]]]}, {"class_name": "Conv2D", "config": {"name": "conv2d_1340", "trainable": true, "dtype": "float32", "filters": 192, "kernel_size": [1, 1], "strides": [1, 1], "padding": "same", "data_format": "channels_last", "dilation_rate": [1, 1], "groups": 1, "activation": "linear", "use_bias": false, "kernel_initializer": {"class_name": "GlorotUniform", "config": {"seed": null}}, "bias_initializer": {"class_name": "Zeros", "config": {}}, "kernel_regularizer": null, "bias_regularizer": null, "activity_regularizer": null, "kernel_constraint": null, "bias_constraint": null}, "name": "conv2d_1340", "inbound_nodes": [[["block8_4_ac", 0, 0, {}]]]}, {"class_name": "Conv2D", "config": {"name": "conv2d_1343", "trainable": true, "dtype": "float32", "filters": 256, "kernel_size": [3, 1], "strides": [1, 1], "padding": "same", "data_format": "channels_last", "dilation_rate": [1, 1], "groups": 1, "activation": "linear", "use_bias": false, "kernel_initializer": {"class_name": "GlorotUniform", "config": {"seed": null}}, "bias_initializer": {"class_name": "Zeros", "config": {}}, "kernel_regularizer": null, "bias_regularizer": null, "activity_regularizer": null, "kernel_constraint": null, "bias_constraint": null}, "name": "conv2d_1343", "inbound_nodes": [[["activation_1341", 0, 0, {}]]]}, {"class_name": "BatchNormalization", "config": {"name": "batch_normalization_1339", "trainable": true, "dtype": "float32", "axis": [3], "momentum": 0.99, "epsilon": 0.001, "center": true, "scale": false, "beta_initializer": {"class_name": "Zeros", "config": {}}, "gamma_initializer": {"class_name": "Ones", "config": {}}, "moving_mean_initializer": {"class_name": "Zeros", "config": {}}, "moving_variance_initializer": {"class_name": "Ones", "config": {}}, "beta_regularizer": null, "gamma_regularizer": null, "beta_constraint": null, "gamma_constraint": null}, "name": "batch_normalization_1339", "inbound_nodes": [[["conv2d_1340", 0, 0, {}]]]}, {"class_name": "BatchNormalization", "config": {"name": "batch_normalization_1342", "trainable": true, "dtype": "float32", "axis": [3], "momentum": 0.99, "epsilon": 0.001, "center": true, "scale": false, "beta_initializer": {"class_name": "Zeros", "config": {}}, "gamma_initializer": {"class_name": "Ones", "config": {}}, "moving_mean_initializer": {"class_name": "Zeros", "config": {}}, "moving_variance_initializer": {"class_name": "Ones", "config": {}}, "beta_regularizer": null, "gamma_regularizer": null, "beta_constraint": null, "gamma_constraint": null}, "name": "batch_normalization_1342", "inbound_nodes": [[["conv2d_1343", 0, 0, {}]]]}, {"class_name": "Activation", "config": {"name": "activation_1339", "trainable": true, "dtype": "float32", "activation": "relu"}, "name": "activation_1339", "inbound_nodes": [[["batch_normalization_1339", 0, 0, {}]]]}, {"class_name": "Activation", "config": {"name": "activation_1342", "trainable": true, "dtype": "float32", "activation": "relu"}, "name": "activation_1342", "inbound_nodes": [[["batch_normalization_1342", 0, 0, {}]]]}, {"class_name": "Concatenate", "config": {"name": "block8_5_mixed", "trainable": true, "dtype": "float32", "axis": 3}, "name": "block8_5_mixed", "inbound_nodes": [[["activation_1339", 0, 0, {}], ["activation_1342", 0, 0, {}]]]}, {"class_name": "Conv2D", "config": {"name": "block8_5_conv", "trainable": true, "dtype": "float32", "filters": 2080, "kernel_size": [1, 1], "strides": [1, 1], "padding": "same", "data_format": "channels_last", "dilation_rate": [1, 1], "groups": 1, "activation": "linear", "use_bias": true, "kernel_initializer": {"class_name": "GlorotUniform", "config": {"seed": null}}, "bias_initializer": {"class_name": "Zeros", "config": {}}, "kernel_regularizer": null, "bias_regularizer": null, "activity_regularizer": null, "kernel_constraint": null, "bias_constraint": null}, "name": "block8_5_conv", "inbound_nodes": [[["block8_5_mixed", 0, 0, {}]]]}, {"class_name": "Lambda", "config": {"name": "block8_5", "trainable": true, "dtype": "float32", "function": ["4wIAAAAAAAAAAgAAAAMAAABTAAAAcxQAAAB8AGQBGQB8AGQCGQB8ARQAFwBTACkDTukAAAAA6QEA\nAACpACkC2gZpbnB1dHPaBXNjYWxlcgMAAAByAwAAAPpiL3Vzci9sb2NhbC9saWIvcHl0aG9uMy42\nL2Rpc3QtcGFja2FnZXMvdGVuc29yZmxvdy9weXRob24va2VyYXMvYXBwbGljYXRpb25zL2luY2Vw\ndGlvbl9yZXNuZXRfdjIucHnaCDxsYW1iZGE+dAEAAPMAAAAA\n", null, null], "function_type": "lambda", "module": "tensorflow.python.keras.applications.inception_resnet_v2", "output_shape": [8, 8, 2080], "output_shape_type": "raw", "output_shape_module": null, "arguments": {"scale": 0.2}}, "name": "block8_5", "inbound_nodes": [[["block8_4_ac", 0, 0, {}], ["block8_5_conv", 0, 0, {}]]]}, {"class_name": "Activation", "config": {"name": "block8_5_ac", "trainable": true, "dtype": "float32", "activation": "relu"}, "name": "block8_5_ac", "inbound_nodes": [[["block8_5", 0, 0, {}]]]}, {"class_name": "Conv2D", "config": {"name": "conv2d_1345", "trainable": true, "dtype": "float32", "filters": 192, "kernel_size": [1, 1], "strides": [1, 1], "padding": "same", "data_format": "channels_last", "dilation_rate": [1, 1], "groups": 1, "activation": "linear", "use_bias": false, "kernel_initializer": {"class_name": "GlorotUniform", "config": {"seed": null}}, "bias_initializer": {"class_name": "Zeros", "config": {}}, "kernel_regularizer": null, "bias_regularizer": null, "activity_regularizer": null, "kernel_constraint": null, "bias_constraint": null}, "name": "conv2d_1345", "inbound_nodes": [[["block8_5_ac", 0, 0, {}]]]}, {"class_name": "BatchNormalization", "config": {"name": "batch_normalization_1344", "trainable": true, "dtype": "float32", "axis": [3], "momentum": 0.99, "epsilon": 0.001, "center": true, "scale": false, "beta_initializer": {"class_name": "Zeros", "config": {}}, "gamma_initializer": {"class_name": "Ones", "config": {}}, "moving_mean_initializer": {"class_name": "Zeros", "config": {}}, "moving_variance_initializer": {"class_name": "Ones", "config": {}}, "beta_regularizer": null, "gamma_regularizer": null, "beta_constraint": null, "gamma_constraint": null}, "name": "batch_normalization_1344", "inbound_nodes": [[["conv2d_1345", 0, 0, {}]]]}, {"class_name": "Activation", "config": {"name": "activation_1344", "trainable": true, "dtype": "float32", "activation": "relu"}, "name": "activation_1344", "inbound_nodes": [[["batch_normalization_1344", 0, 0, {}]]]}, {"class_name": "Conv2D", "config": {"name": "conv2d_1346", "trainable": true, "dtype": "float32", "filters": 224, "kernel_size": [1, 3], "strides": [1, 1], "padding": "same", "data_format": "channels_last", "dilation_rate": [1, 1], "groups": 1, "activation": "linear", "use_bias": false, "kernel_initializer": {"class_name": "GlorotUniform", "config": {"seed": null}}, "bias_initializer": {"class_name": "Zeros", "config": {}}, "kernel_regularizer": null, "bias_regularizer": null, "activity_regularizer": null, "kernel_constraint": null, "bias_constraint": null}, "name": "conv2d_1346", "inbound_nodes": [[["activation_1344", 0, 0, {}]]]}, {"class_name": "BatchNormalization", "config": {"name": "batch_normalization_1345", "trainable": true, "dtype": "float32", "axis": [3], "momentum": 0.99, "epsilon": 0.001, "center": true, "scale": false, "beta_initializer": {"class_name": "Zeros", "config": {}}, "gamma_initializer": {"class_name": "Ones", "config": {}}, "moving_mean_initializer": {"class_name": "Zeros", "config": {}}, "moving_variance_initializer": {"class_name": "Ones", "config": {}}, "beta_regularizer": null, "gamma_regularizer": null, "beta_constraint": null, "gamma_constraint": null}, "name": "batch_normalization_1345", "inbound_nodes": [[["conv2d_1346", 0, 0, {}]]]}, {"class_name": "Activation", "config": {"name": "activation_1345", "trainable": true, "dtype": "float32", "activation": "relu"}, "name": "activation_1345", "inbound_nodes": [[["batch_normalization_1345", 0, 0, {}]]]}, {"class_name": "Conv2D", "config": {"name": "conv2d_1344", "trainable": true, "dtype": "float32", "filters": 192, "kernel_size": [1, 1], "strides": [1, 1], "padding": "same", "data_format": "channels_last", "dilation_rate": [1, 1], "groups": 1, "activation": "linear", "use_bias": false, "kernel_initializer": {"class_name": "GlorotUniform", "config": {"seed": null}}, "bias_initializer": {"class_name": "Zeros", "config": {}}, "kernel_regularizer": null, "bias_regularizer": null, "activity_regularizer": null, "kernel_constraint": null, "bias_constraint": null}, "name": "conv2d_1344", "inbound_nodes": [[["block8_5_ac", 0, 0, {}]]]}, {"class_name": "Conv2D", "config": {"name": "conv2d_1347", "trainable": true, "dtype": "float32", "filters": 256, "kernel_size": [3, 1], "strides": [1, 1], "padding": "same", "data_format": "channels_last", "dilation_rate": [1, 1], "groups": 1, "activation": "linear", "use_bias": false, "kernel_initializer": {"class_name": "GlorotUniform", "config": {"seed": null}}, "bias_initializer": {"class_name": "Zeros", "config": {}}, "kernel_regularizer": null, "bias_regularizer": null, "activity_regularizer": null, "kernel_constraint": null, "bias_constraint": null}, "name": "conv2d_1347", "inbound_nodes": [[["activation_1345", 0, 0, {}]]]}, {"class_name": "BatchNormalization", "config": {"name": "batch_normalization_1343", "trainable": true, "dtype": "float32", "axis": [3], "momentum": 0.99, "epsilon": 0.001, "center": true, "scale": false, "beta_initializer": {"class_name": "Zeros", "config": {}}, "gamma_initializer": {"class_name": "Ones", "config": {}}, "moving_mean_initializer": {"class_name": "Zeros", "config": {}}, "moving_variance_initializer": {"class_name": "Ones", "config": {}}, "beta_regularizer": null, "gamma_regularizer": null, "beta_constraint": null, "gamma_constraint": null}, "name": "batch_normalization_1343", "inbound_nodes": [[["conv2d_1344", 0, 0, {}]]]}, {"class_name": "BatchNormalization", "config": {"name": "batch_normalization_1346", "trainable": true, "dtype": "float32", "axis": [3], "momentum": 0.99, "epsilon": 0.001, "center": true, "scale": false, "beta_initializer": {"class_name": "Zeros", "config": {}}, "gamma_initializer": {"class_name": "Ones", "config": {}}, "moving_mean_initializer": {"class_name": "Zeros", "config": {}}, "moving_variance_initializer": {"class_name": "Ones", "config": {}}, "beta_regularizer": null, "gamma_regularizer": null, "beta_constraint": null, "gamma_constraint": null}, "name": "batch_normalization_1346", "inbound_nodes": [[["conv2d_1347", 0, 0, {}]]]}, {"class_name": "Activation", "config": {"name": "activation_1343", "trainable": true, "dtype": "float32", "activation": "relu"}, "name": "activation_1343", "inbound_nodes": [[["batch_normalization_1343", 0, 0, {}]]]}, {"class_name": "Activation", "config": {"name": "activation_1346", "trainable": true, "dtype": "float32", "activation": "relu"}, "name": "activation_1346", "inbound_nodes": [[["batch_normalization_1346", 0, 0, {}]]]}, {"class_name": "Concatenate", "config": {"name": "block8_6_mixed", "trainable": true, "dtype": "float32", "axis": 3}, "name": "block8_6_mixed", "inbound_nodes": [[["activation_1343", 0, 0, {}], ["activation_1346", 0, 0, {}]]]}, {"class_name": "Conv2D", "config": {"name": "block8_6_conv", "trainable": true, "dtype": "float32", "filters": 2080, "kernel_size": [1, 1], "strides": [1, 1], "padding": "same", "data_format": "channels_last", "dilation_rate": [1, 1], "groups": 1, "activation": "linear", "use_bias": true, "kernel_initializer": {"class_name": "GlorotUniform", "config": {"seed": null}}, "bias_initializer": {"class_name": "Zeros", "config": {}}, "kernel_regularizer": null, "bias_regularizer": null, "activity_regularizer": null, "kernel_constraint": null, "bias_constraint": null}, "name": "block8_6_conv", "inbound_nodes": [[["block8_6_mixed", 0, 0, {}]]]}, {"class_name": "Lambda", "config": {"name": "block8_6", "trainable": true, "dtype": "float32", "function": ["4wIAAAAAAAAAAgAAAAMAAABTAAAAcxQAAAB8AGQBGQB8AGQCGQB8ARQAFwBTACkDTukAAAAA6QEA\nAACpACkC2gZpbnB1dHPaBXNjYWxlcgMAAAByAwAAAPpiL3Vzci9sb2NhbC9saWIvcHl0aG9uMy42\nL2Rpc3QtcGFja2FnZXMvdGVuc29yZmxvdy9weXRob24va2VyYXMvYXBwbGljYXRpb25zL2luY2Vw\ndGlvbl9yZXNuZXRfdjIucHnaCDxsYW1iZGE+dAEAAPMAAAAA\n", null, null], "function_type": "lambda", "module": "tensorflow.python.keras.applications.inception_resnet_v2", "output_shape": [8, 8, 2080], "output_shape_type": "raw", "output_shape_module": null, "arguments": {"scale": 0.2}}, "name": "block8_6", "inbound_nodes": [[["block8_5_ac", 0, 0, {}], ["block8_6_conv", 0, 0, {}]]]}, {"class_name": "Activation", "config": {"name": "block8_6_ac", "trainable": true, "dtype": "float32", "activation": "relu"}, "name": "block8_6_ac", "inbound_nodes": [[["block8_6", 0, 0, {}]]]}, {"class_name": "Conv2D", "config": {"name": "conv2d_1349", "trainable": true, "dtype": "float32", "filters": 192, "kernel_size": [1, 1], "strides": [1, 1], "padding": "same", "data_format": "channels_last", "dilation_rate": [1, 1], "groups": 1, "activation": "linear", "use_bias": false, "kernel_initializer": {"class_name": "GlorotUniform", "config": {"seed": null}}, "bias_initializer": {"class_name": "Zeros", "config": {}}, "kernel_regularizer": null, "bias_regularizer": null, "activity_regularizer": null, "kernel_constraint": null, "bias_constraint": null}, "name": "conv2d_1349", "inbound_nodes": [[["block8_6_ac", 0, 0, {}]]]}, {"class_name": "BatchNormalization", "config": {"name": "batch_normalization_1348", "trainable": true, "dtype": "float32", "axis": [3], "momentum": 0.99, "epsilon": 0.001, "center": true, "scale": false, "beta_initializer": {"class_name": "Zeros", "config": {}}, "gamma_initializer": {"class_name": "Ones", "config": {}}, "moving_mean_initializer": {"class_name": "Zeros", "config": {}}, "moving_variance_initializer": {"class_name": "Ones", "config": {}}, "beta_regularizer": null, "gamma_regularizer": null, "beta_constraint": null, "gamma_constraint": null}, "name": "batch_normalization_1348", "inbound_nodes": [[["conv2d_1349", 0, 0, {}]]]}, {"class_name": "Activation", "config": {"name": "activation_1348", "trainable": true, "dtype": "float32", "activation": "relu"}, "name": "activation_1348", "inbound_nodes": [[["batch_normalization_1348", 0, 0, {}]]]}, {"class_name": "Conv2D", "config": {"name": "conv2d_1350", "trainable": true, "dtype": "float32", "filters": 224, "kernel_size": [1, 3], "strides": [1, 1], "padding": "same", "data_format": "channels_last", "dilation_rate": [1, 1], "groups": 1, "activation": "linear", "use_bias": false, "kernel_initializer": {"class_name": "GlorotUniform", "config": {"seed": null}}, "bias_initializer": {"class_name": "Zeros", "config": {}}, "kernel_regularizer": null, "bias_regularizer": null, "activity_regularizer": null, "kernel_constraint": null, "bias_constraint": null}, "name": "conv2d_1350", "inbound_nodes": [[["activation_1348", 0, 0, {}]]]}, {"class_name": "BatchNormalization", "config": {"name": "batch_normalization_1349", "trainable": true, "dtype": "float32", "axis": [3], "momentum": 0.99, "epsilon": 0.001, "center": true, "scale": false, "beta_initializer": {"class_name": "Zeros", "config": {}}, "gamma_initializer": {"class_name": "Ones", "config": {}}, "moving_mean_initializer": {"class_name": "Zeros", "config": {}}, "moving_variance_initializer": {"class_name": "Ones", "config": {}}, "beta_regularizer": null, "gamma_regularizer": null, "beta_constraint": null, "gamma_constraint": null}, "name": "batch_normalization_1349", "inbound_nodes": [[["conv2d_1350", 0, 0, {}]]]}, {"class_name": "Activation", "config": {"name": "activation_1349", "trainable": true, "dtype": "float32", "activation": "relu"}, "name": "activation_1349", "inbound_nodes": [[["batch_normalization_1349", 0, 0, {}]]]}, {"class_name": "Conv2D", "config": {"name": "conv2d_1348", "trainable": true, "dtype": "float32", "filters": 192, "kernel_size": [1, 1], "strides": [1, 1], "padding": "same", "data_format": "channels_last", "dilation_rate": [1, 1], "groups": 1, "activation": "linear", "use_bias": false, "kernel_initializer": {"class_name": "GlorotUniform", "config": {"seed": null}}, "bias_initializer": {"class_name": "Zeros", "config": {}}, "kernel_regularizer": null, "bias_regularizer": null, "activity_regularizer": null, "kernel_constraint": null, "bias_constraint": null}, "name": "conv2d_1348", "inbound_nodes": [[["block8_6_ac", 0, 0, {}]]]}, {"class_name": "Conv2D", "config": {"name": "conv2d_1351", "trainable": true, "dtype": "float32", "filters": 256, "kernel_size": [3, 1], "strides": [1, 1], "padding": "same", "data_format": "channels_last", "dilation_rate": [1, 1], "groups": 1, "activation": "linear", "use_bias": false, "kernel_initializer": {"class_name": "GlorotUniform", "config": {"seed": null}}, "bias_initializer": {"class_name": "Zeros", "config": {}}, "kernel_regularizer": null, "bias_regularizer": null, "activity_regularizer": null, "kernel_constraint": null, "bias_constraint": null}, "name": "conv2d_1351", "inbound_nodes": [[["activation_1349", 0, 0, {}]]]}, {"class_name": "BatchNormalization", "config": {"name": "batch_normalization_1347", "trainable": true, "dtype": "float32", "axis": [3], "momentum": 0.99, "epsilon": 0.001, "center": true, "scale": false, "beta_initializer": {"class_name": "Zeros", "config": {}}, "gamma_initializer": {"class_name": "Ones", "config": {}}, "moving_mean_initializer": {"class_name": "Zeros", "config": {}}, "moving_variance_initializer": {"class_name": "Ones", "config": {}}, "beta_regularizer": null, "gamma_regularizer": null, "beta_constraint": null, "gamma_constraint": null}, "name": "batch_normalization_1347", "inbound_nodes": [[["conv2d_1348", 0, 0, {}]]]}, {"class_name": "BatchNormalization", "config": {"name": "batch_normalization_1350", "trainable": true, "dtype": "float32", "axis": [3], "momentum": 0.99, "epsilon": 0.001, "center": true, "scale": false, "beta_initializer": {"class_name": "Zeros", "config": {}}, "gamma_initializer": {"class_name": "Ones", "config": {}}, "moving_mean_initializer": {"class_name": "Zeros", "config": {}}, "moving_variance_initializer": {"class_name": "Ones", "config": {}}, "beta_regularizer": null, "gamma_regularizer": null, "beta_constraint": null, "gamma_constraint": null}, "name": "batch_normalization_1350", "inbound_nodes": [[["conv2d_1351", 0, 0, {}]]]}, {"class_name": "Activation", "config": {"name": "activation_1347", "trainable": true, "dtype": "float32", "activation": "relu"}, "name": "activation_1347", "inbound_nodes": [[["batch_normalization_1347", 0, 0, {}]]]}, {"class_name": "Activation", "config": {"name": "activation_1350", "trainable": true, "dtype": "float32", "activation": "relu"}, "name": "activation_1350", "inbound_nodes": [[["batch_normalization_1350", 0, 0, {}]]]}, {"class_name": "Concatenate", "config": {"name": "block8_7_mixed", "trainable": true, "dtype": "float32", "axis": 3}, "name": "block8_7_mixed", "inbound_nodes": [[["activation_1347", 0, 0, {}], ["activation_1350", 0, 0, {}]]]}, {"class_name": "Conv2D", "config": {"name": "block8_7_conv", "trainable": true, "dtype": "float32", "filters": 2080, "kernel_size": [1, 1], "strides": [1, 1], "padding": "same", "data_format": "channels_last", "dilation_rate": [1, 1], "groups": 1, "activation": "linear", "use_bias": true, "kernel_initializer": {"class_name": "GlorotUniform", "config": {"seed": null}}, "bias_initializer": {"class_name": "Zeros", "config": {}}, "kernel_regularizer": null, "bias_regularizer": null, "activity_regularizer": null, "kernel_constraint": null, "bias_constraint": null}, "name": "block8_7_conv", "inbound_nodes": [[["block8_7_mixed", 0, 0, {}]]]}, {"class_name": "Lambda", "config": {"name": "block8_7", "trainable": true, "dtype": "float32", "function": ["4wIAAAAAAAAAAgAAAAMAAABTAAAAcxQAAAB8AGQBGQB8AGQCGQB8ARQAFwBTACkDTukAAAAA6QEA\nAACpACkC2gZpbnB1dHPaBXNjYWxlcgMAAAByAwAAAPpiL3Vzci9sb2NhbC9saWIvcHl0aG9uMy42\nL2Rpc3QtcGFja2FnZXMvdGVuc29yZmxvdy9weXRob24va2VyYXMvYXBwbGljYXRpb25zL2luY2Vw\ndGlvbl9yZXNuZXRfdjIucHnaCDxsYW1iZGE+dAEAAPMAAAAA\n", null, null], "function_type": "lambda", "module": "tensorflow.python.keras.applications.inception_resnet_v2", "output_shape": [8, 8, 2080], "output_shape_type": "raw", "output_shape_module": null, "arguments": {"scale": 0.2}}, "name": "block8_7", "inbound_nodes": [[["block8_6_ac", 0, 0, {}], ["block8_7_conv", 0, 0, {}]]]}, {"class_name": "Activation", "config": {"name": "block8_7_ac", "trainable": true, "dtype": "float32", "activation": "relu"}, "name": "block8_7_ac", "inbound_nodes": [[["block8_7", 0, 0, {}]]]}, {"class_name": "Conv2D", "config": {"name": "conv2d_1353", "trainable": true, "dtype": "float32", "filters": 192, "kernel_size": [1, 1], "strides": [1, 1], "padding": "same", "data_format": "channels_last", "dilation_rate": [1, 1], "groups": 1, "activation": "linear", "use_bias": false, "kernel_initializer": {"class_name": "GlorotUniform", "config": {"seed": null}}, "bias_initializer": {"class_name": "Zeros", "config": {}}, "kernel_regularizer": null, "bias_regularizer": null, "activity_regularizer": null, "kernel_constraint": null, "bias_constraint": null}, "name": "conv2d_1353", "inbound_nodes": [[["block8_7_ac", 0, 0, {}]]]}, {"class_name": "BatchNormalization", "config": {"name": "batch_normalization_1352", "trainable": true, "dtype": "float32", "axis": [3], "momentum": 0.99, "epsilon": 0.001, "center": true, "scale": false, "beta_initializer": {"class_name": "Zeros", "config": {}}, "gamma_initializer": {"class_name": "Ones", "config": {}}, "moving_mean_initializer": {"class_name": "Zeros", "config": {}}, "moving_variance_initializer": {"class_name": "Ones", "config": {}}, "beta_regularizer": null, "gamma_regularizer": null, "beta_constraint": null, "gamma_constraint": null}, "name": "batch_normalization_1352", "inbound_nodes": [[["conv2d_1353", 0, 0, {}]]]}, {"class_name": "Activation", "config": {"name": "activation_1352", "trainable": true, "dtype": "float32", "activation": "relu"}, "name": "activation_1352", "inbound_nodes": [[["batch_normalization_1352", 0, 0, {}]]]}, {"class_name": "Conv2D", "config": {"name": "conv2d_1354", "trainable": true, "dtype": "float32", "filters": 224, "kernel_size": [1, 3], "strides": [1, 1], "padding": "same", "data_format": "channels_last", "dilation_rate": [1, 1], "groups": 1, "activation": "linear", "use_bias": false, "kernel_initializer": {"class_name": "GlorotUniform", "config": {"seed": null}}, "bias_initializer": {"class_name": "Zeros", "config": {}}, "kernel_regularizer": null, "bias_regularizer": null, "activity_regularizer": null, "kernel_constraint": null, "bias_constraint": null}, "name": "conv2d_1354", "inbound_nodes": [[["activation_1352", 0, 0, {}]]]}, {"class_name": "BatchNormalization", "config": {"name": "batch_normalization_1353", "trainable": true, "dtype": "float32", "axis": [3], "momentum": 0.99, "epsilon": 0.001, "center": true, "scale": false, "beta_initializer": {"class_name": "Zeros", "config": {}}, "gamma_initializer": {"class_name": "Ones", "config": {}}, "moving_mean_initializer": {"class_name": "Zeros", "config": {}}, "moving_variance_initializer": {"class_name": "Ones", "config": {}}, "beta_regularizer": null, "gamma_regularizer": null, "beta_constraint": null, "gamma_constraint": null}, "name": "batch_normalization_1353", "inbound_nodes": [[["conv2d_1354", 0, 0, {}]]]}, {"class_name": "Activation", "config": {"name": "activation_1353", "trainable": true, "dtype": "float32", "activation": "relu"}, "name": "activation_1353", "inbound_nodes": [[["batch_normalization_1353", 0, 0, {}]]]}, {"class_name": "Conv2D", "config": {"name": "conv2d_1352", "trainable": true, "dtype": "float32", "filters": 192, "kernel_size": [1, 1], "strides": [1, 1], "padding": "same", "data_format": "channels_last", "dilation_rate": [1, 1], "groups": 1, "activation": "linear", "use_bias": false, "kernel_initializer": {"class_name": "GlorotUniform", "config": {"seed": null}}, "bias_initializer": {"class_name": "Zeros", "config": {}}, "kernel_regularizer": null, "bias_regularizer": null, "activity_regularizer": null, "kernel_constraint": null, "bias_constraint": null}, "name": "conv2d_1352", "inbound_nodes": [[["block8_7_ac", 0, 0, {}]]]}, {"class_name": "Conv2D", "config": {"name": "conv2d_1355", "trainable": true, "dtype": "float32", "filters": 256, "kernel_size": [3, 1], "strides": [1, 1], "padding": "same", "data_format": "channels_last", "dilation_rate": [1, 1], "groups": 1, "activation": "linear", "use_bias": false, "kernel_initializer": {"class_name": "GlorotUniform", "config": {"seed": null}}, "bias_initializer": {"class_name": "Zeros", "config": {}}, "kernel_regularizer": null, "bias_regularizer": null, "activity_regularizer": null, "kernel_constraint": null, "bias_constraint": null}, "name": "conv2d_1355", "inbound_nodes": [[["activation_1353", 0, 0, {}]]]}, {"class_name": "BatchNormalization", "config": {"name": "batch_normalization_1351", "trainable": true, "dtype": "float32", "axis": [3], "momentum": 0.99, "epsilon": 0.001, "center": true, "scale": false, "beta_initializer": {"class_name": "Zeros", "config": {}}, "gamma_initializer": {"class_name": "Ones", "config": {}}, "moving_mean_initializer": {"class_name": "Zeros", "config": {}}, "moving_variance_initializer": {"class_name": "Ones", "config": {}}, "beta_regularizer": null, "gamma_regularizer": null, "beta_constraint": null, "gamma_constraint": null}, "name": "batch_normalization_1351", "inbound_nodes": [[["conv2d_1352", 0, 0, {}]]]}, {"class_name": "BatchNormalization", "config": {"name": "batch_normalization_1354", "trainable": true, "dtype": "float32", "axis": [3], "momentum": 0.99, "epsilon": 0.001, "center": true, "scale": false, "beta_initializer": {"class_name": "Zeros", "config": {}}, "gamma_initializer": {"class_name": "Ones", "config": {}}, "moving_mean_initializer": {"class_name": "Zeros", "config": {}}, "moving_variance_initializer": {"class_name": "Ones", "config": {}}, "beta_regularizer": null, "gamma_regularizer": null, "beta_constraint": null, "gamma_constraint": null}, "name": "batch_normalization_1354", "inbound_nodes": [[["conv2d_1355", 0, 0, {}]]]}, {"class_name": "Activation", "config": {"name": "activation_1351", "trainable": true, "dtype": "float32", "activation": "relu"}, "name": "activation_1351", "inbound_nodes": [[["batch_normalization_1351", 0, 0, {}]]]}, {"class_name": "Activation", "config": {"name": "activation_1354", "trainable": true, "dtype": "float32", "activation": "relu"}, "name": "activation_1354", "inbound_nodes": [[["batch_normalization_1354", 0, 0, {}]]]}, {"class_name": "Concatenate", "config": {"name": "block8_8_mixed", "trainable": true, "dtype": "float32", "axis": 3}, "name": "block8_8_mixed", "inbound_nodes": [[["activation_1351", 0, 0, {}], ["activation_1354", 0, 0, {}]]]}, {"class_name": "Conv2D", "config": {"name": "block8_8_conv", "trainable": true, "dtype": "float32", "filters": 2080, "kernel_size": [1, 1], "strides": [1, 1], "padding": "same", "data_format": "channels_last", "dilation_rate": [1, 1], "groups": 1, "activation": "linear", "use_bias": true, "kernel_initializer": {"class_name": "GlorotUniform", "config": {"seed": null}}, "bias_initializer": {"class_name": "Zeros", "config": {}}, "kernel_regularizer": null, "bias_regularizer": null, "activity_regularizer": null, "kernel_constraint": null, "bias_constraint": null}, "name": "block8_8_conv", "inbound_nodes": [[["block8_8_mixed", 0, 0, {}]]]}, {"class_name": "Lambda", "config": {"name": "block8_8", "trainable": true, "dtype": "float32", "function": ["4wIAAAAAAAAAAgAAAAMAAABTAAAAcxQAAAB8AGQBGQB8AGQCGQB8ARQAFwBTACkDTukAAAAA6QEA\nAACpACkC2gZpbnB1dHPaBXNjYWxlcgMAAAByAwAAAPpiL3Vzci9sb2NhbC9saWIvcHl0aG9uMy42\nL2Rpc3QtcGFja2FnZXMvdGVuc29yZmxvdy9weXRob24va2VyYXMvYXBwbGljYXRpb25zL2luY2Vw\ndGlvbl9yZXNuZXRfdjIucHnaCDxsYW1iZGE+dAEAAPMAAAAA\n", null, null], "function_type": "lambda", "module": "tensorflow.python.keras.applications.inception_resnet_v2", "output_shape": [8, 8, 2080], "output_shape_type": "raw", "output_shape_module": null, "arguments": {"scale": 0.2}}, "name": "block8_8", "inbound_nodes": [[["block8_7_ac", 0, 0, {}], ["block8_8_conv", 0, 0, {}]]]}, {"class_name": "Activation", "config": {"name": "block8_8_ac", "trainable": true, "dtype": "float32", "activation": "relu"}, "name": "block8_8_ac", "inbound_nodes": [[["block8_8", 0, 0, {}]]]}, {"class_name": "Conv2D", "config": {"name": "conv2d_1357", "trainable": true, "dtype": "float32", "filters": 192, "kernel_size": [1, 1], "strides": [1, 1], "padding": "same", "data_format": "channels_last", "dilation_rate": [1, 1], "groups": 1, "activation": "linear", "use_bias": false, "kernel_initializer": {"class_name": "GlorotUniform", "config": {"seed": null}}, "bias_initializer": {"class_name": "Zeros", "config": {}}, "kernel_regularizer": null, "bias_regularizer": null, "activity_regularizer": null, "kernel_constraint": null, "bias_constraint": null}, "name": "conv2d_1357", "inbound_nodes": [[["block8_8_ac", 0, 0, {}]]]}, {"class_name": "BatchNormalization", "config": {"name": "batch_normalization_1356", "trainable": true, "dtype": "float32", "axis": [3], "momentum": 0.99, "epsilon": 0.001, "center": true, "scale": false, "beta_initializer": {"class_name": "Zeros", "config": {}}, "gamma_initializer": {"class_name": "Ones", "config": {}}, "moving_mean_initializer": {"class_name": "Zeros", "config": {}}, "moving_variance_initializer": {"class_name": "Ones", "config": {}}, "beta_regularizer": null, "gamma_regularizer": null, "beta_constraint": null, "gamma_constraint": null}, "name": "batch_normalization_1356", "inbound_nodes": [[["conv2d_1357", 0, 0, {}]]]}, {"class_name": "Activation", "config": {"name": "activation_1356", "trainable": true, "dtype": "float32", "activation": "relu"}, "name": "activation_1356", "inbound_nodes": [[["batch_normalization_1356", 0, 0, {}]]]}, {"class_name": "Conv2D", "config": {"name": "conv2d_1358", "trainable": true, "dtype": "float32", "filters": 224, "kernel_size": [1, 3], "strides": [1, 1], "padding": "same", "data_format": "channels_last", "dilation_rate": [1, 1], "groups": 1, "activation": "linear", "use_bias": false, "kernel_initializer": {"class_name": "GlorotUniform", "config": {"seed": null}}, "bias_initializer": {"class_name": "Zeros", "config": {}}, "kernel_regularizer": null, "bias_regularizer": null, "activity_regularizer": null, "kernel_constraint": null, "bias_constraint": null}, "name": "conv2d_1358", "inbound_nodes": [[["activation_1356", 0, 0, {}]]]}, {"class_name": "BatchNormalization", "config": {"name": "batch_normalization_1357", "trainable": true, "dtype": "float32", "axis": [3], "momentum": 0.99, "epsilon": 0.001, "center": true, "scale": false, "beta_initializer": {"class_name": "Zeros", "config": {}}, "gamma_initializer": {"class_name": "Ones", "config": {}}, "moving_mean_initializer": {"class_name": "Zeros", "config": {}}, "moving_variance_initializer": {"class_name": "Ones", "config": {}}, "beta_regularizer": null, "gamma_regularizer": null, "beta_constraint": null, "gamma_constraint": null}, "name": "batch_normalization_1357", "inbound_nodes": [[["conv2d_1358", 0, 0, {}]]]}, {"class_name": "Activation", "config": {"name": "activation_1357", "trainable": true, "dtype": "float32", "activation": "relu"}, "name": "activation_1357", "inbound_nodes": [[["batch_normalization_1357", 0, 0, {}]]]}, {"class_name": "Conv2D", "config": {"name": "conv2d_1356", "trainable": true, "dtype": "float32", "filters": 192, "kernel_size": [1, 1], "strides": [1, 1], "padding": "same", "data_format": "channels_last", "dilation_rate": [1, 1], "groups": 1, "activation": "linear", "use_bias": false, "kernel_initializer": {"class_name": "GlorotUniform", "config": {"seed": null}}, "bias_initializer": {"class_name": "Zeros", "config": {}}, "kernel_regularizer": null, "bias_regularizer": null, "activity_regularizer": null, "kernel_constraint": null, "bias_constraint": null}, "name": "conv2d_1356", "inbound_nodes": [[["block8_8_ac", 0, 0, {}]]]}, {"class_name": "Conv2D", "config": {"name": "conv2d_1359", "trainable": true, "dtype": "float32", "filters": 256, "kernel_size": [3, 1], "strides": [1, 1], "padding": "same", "data_format": "channels_last", "dilation_rate": [1, 1], "groups": 1, "activation": "linear", "use_bias": false, "kernel_initializer": {"class_name": "GlorotUniform", "config": {"seed": null}}, "bias_initializer": {"class_name": "Zeros", "config": {}}, "kernel_regularizer": null, "bias_regularizer": null, "activity_regularizer": null, "kernel_constraint": null, "bias_constraint": null}, "name": "conv2d_1359", "inbound_nodes": [[["activation_1357", 0, 0, {}]]]}, {"class_name": "BatchNormalization", "config": {"name": "batch_normalization_1355", "trainable": true, "dtype": "float32", "axis": [3], "momentum": 0.99, "epsilon": 0.001, "center": true, "scale": false, "beta_initializer": {"class_name": "Zeros", "config": {}}, "gamma_initializer": {"class_name": "Ones", "config": {}}, "moving_mean_initializer": {"class_name": "Zeros", "config": {}}, "moving_variance_initializer": {"class_name": "Ones", "config": {}}, "beta_regularizer": null, "gamma_regularizer": null, "beta_constraint": null, "gamma_constraint": null}, "name": "batch_normalization_1355", "inbound_nodes": [[["conv2d_1356", 0, 0, {}]]]}, {"class_name": "BatchNormalization", "config": {"name": "batch_normalization_1358", "trainable": true, "dtype": "float32", "axis": [3], "momentum": 0.99, "epsilon": 0.001, "center": true, "scale": false, "beta_initializer": {"class_name": "Zeros", "config": {}}, "gamma_initializer": {"class_name": "Ones", "config": {}}, "moving_mean_initializer": {"class_name": "Zeros", "config": {}}, "moving_variance_initializer": {"class_name": "Ones", "config": {}}, "beta_regularizer": null, "gamma_regularizer": null, "beta_constraint": null, "gamma_constraint": null}, "name": "batch_normalization_1358", "inbound_nodes": [[["conv2d_1359", 0, 0, {}]]]}, {"class_name": "Activation", "config": {"name": "activation_1355", "trainable": true, "dtype": "float32", "activation": "relu"}, "name": "activation_1355", "inbound_nodes": [[["batch_normalization_1355", 0, 0, {}]]]}, {"class_name": "Activation", "config": {"name": "activation_1358", "trainable": true, "dtype": "float32", "activation": "relu"}, "name": "activation_1358", "inbound_nodes": [[["batch_normalization_1358", 0, 0, {}]]]}, {"class_name": "Concatenate", "config": {"name": "block8_9_mixed", "trainable": true, "dtype": "float32", "axis": 3}, "name": "block8_9_mixed", "inbound_nodes": [[["activation_1355", 0, 0, {}], ["activation_1358", 0, 0, {}]]]}, {"class_name": "Conv2D", "config": {"name": "block8_9_conv", "trainable": true, "dtype": "float32", "filters": 2080, "kernel_size": [1, 1], "strides": [1, 1], "padding": "same", "data_format": "channels_last", "dilation_rate": [1, 1], "groups": 1, "activation": "linear", "use_bias": true, "kernel_initializer": {"class_name": "GlorotUniform", "config": {"seed": null}}, "bias_initializer": {"class_name": "Zeros", "config": {}}, "kernel_regularizer": null, "bias_regularizer": null, "activity_regularizer": null, "kernel_constraint": null, "bias_constraint": null}, "name": "block8_9_conv", "inbound_nodes": [[["block8_9_mixed", 0, 0, {}]]]}, {"class_name": "Lambda", "config": {"name": "block8_9", "trainable": true, "dtype": "float32", "function": ["4wIAAAAAAAAAAgAAAAMAAABTAAAAcxQAAAB8AGQBGQB8AGQCGQB8ARQAFwBTACkDTukAAAAA6QEA\nAACpACkC2gZpbnB1dHPaBXNjYWxlcgMAAAByAwAAAPpiL3Vzci9sb2NhbC9saWIvcHl0aG9uMy42\nL2Rpc3QtcGFja2FnZXMvdGVuc29yZmxvdy9weXRob24va2VyYXMvYXBwbGljYXRpb25zL2luY2Vw\ndGlvbl9yZXNuZXRfdjIucHnaCDxsYW1iZGE+dAEAAPMAAAAA\n", null, null], "function_type": "lambda", "module": "tensorflow.python.keras.applications.inception_resnet_v2", "output_shape": [8, 8, 2080], "output_shape_type": "raw", "output_shape_module": null, "arguments": {"scale": 0.2}}, "name": "block8_9", "inbound_nodes": [[["block8_8_ac", 0, 0, {}], ["block8_9_conv", 0, 0, {}]]]}, {"class_name": "Activation", "config": {"name": "block8_9_ac", "trainable": true, "dtype": "float32", "activation": "relu"}, "name": "block8_9_ac", "inbound_nodes": [[["block8_9", 0, 0, {}]]]}, {"class_name": "Conv2D", "config": {"name": "conv2d_1361", "trainable": true, "dtype": "float32", "filters": 192, "kernel_size": [1, 1], "strides": [1, 1], "padding": "same", "data_format": "channels_last", "dilation_rate": [1, 1], "groups": 1, "activation": "linear", "use_bias": false, "kernel_initializer": {"class_name": "GlorotUniform", "config": {"seed": null}}, "bias_initializer": {"class_name": "Zeros", "config": {}}, "kernel_regularizer": null, "bias_regularizer": null, "activity_regularizer": null, "kernel_constraint": null, "bias_constraint": null}, "name": "conv2d_1361", "inbound_nodes": [[["block8_9_ac", 0, 0, {}]]]}, {"class_name": "BatchNormalization", "config": {"name": "batch_normalization_1360", "trainable": true, "dtype": "float32", "axis": [3], "momentum": 0.99, "epsilon": 0.001, "center": true, "scale": false, "beta_initializer": {"class_name": "Zeros", "config": {}}, "gamma_initializer": {"class_name": "Ones", "config": {}}, "moving_mean_initializer": {"class_name": "Zeros", "config": {}}, "moving_variance_initializer": {"class_name": "Ones", "config": {}}, "beta_regularizer": null, "gamma_regularizer": null, "beta_constraint": null, "gamma_constraint": null}, "name": "batch_normalization_1360", "inbound_nodes": [[["conv2d_1361", 0, 0, {}]]]}, {"class_name": "Activation", "config": {"name": "activation_1360", "trainable": true, "dtype": "float32", "activation": "relu"}, "name": "activation_1360", "inbound_nodes": [[["batch_normalization_1360", 0, 0, {}]]]}, {"class_name": "Conv2D", "config": {"name": "conv2d_1362", "trainable": true, "dtype": "float32", "filters": 224, "kernel_size": [1, 3], "strides": [1, 1], "padding": "same", "data_format": "channels_last", "dilation_rate": [1, 1], "groups": 1, "activation": "linear", "use_bias": false, "kernel_initializer": {"class_name": "GlorotUniform", "config": {"seed": null}}, "bias_initializer": {"class_name": "Zeros", "config": {}}, "kernel_regularizer": null, "bias_regularizer": null, "activity_regularizer": null, "kernel_constraint": null, "bias_constraint": null}, "name": "conv2d_1362", "inbound_nodes": [[["activation_1360", 0, 0, {}]]]}, {"class_name": "BatchNormalization", "config": {"name": "batch_normalization_1361", "trainable": true, "dtype": "float32", "axis": [3], "momentum": 0.99, "epsilon": 0.001, "center": true, "scale": false, "beta_initializer": {"class_name": "Zeros", "config": {}}, "gamma_initializer": {"class_name": "Ones", "config": {}}, "moving_mean_initializer": {"class_name": "Zeros", "config": {}}, "moving_variance_initializer": {"class_name": "Ones", "config": {}}, "beta_regularizer": null, "gamma_regularizer": null, "beta_constraint": null, "gamma_constraint": null}, "name": "batch_normalization_1361", "inbound_nodes": [[["conv2d_1362", 0, 0, {}]]]}, {"class_name": "Activation", "config": {"name": "activation_1361", "trainable": true, "dtype": "float32", "activation": "relu"}, "name": "activation_1361", "inbound_nodes": [[["batch_normalization_1361", 0, 0, {}]]]}, {"class_name": "Conv2D", "config": {"name": "conv2d_1360", "trainable": true, "dtype": "float32", "filters": 192, "kernel_size": [1, 1], "strides": [1, 1], "padding": "same", "data_format": "channels_last", "dilation_rate": [1, 1], "groups": 1, "activation": "linear", "use_bias": false, "kernel_initializer": {"class_name": "GlorotUniform", "config": {"seed": null}}, "bias_initializer": {"class_name": "Zeros", "config": {}}, "kernel_regularizer": null, "bias_regularizer": null, "activity_regularizer": null, "kernel_constraint": null, "bias_constraint": null}, "name": "conv2d_1360", "inbound_nodes": [[["block8_9_ac", 0, 0, {}]]]}, {"class_name": "Conv2D", "config": {"name": "conv2d_1363", "trainable": true, "dtype": "float32", "filters": 256, "kernel_size": [3, 1], "strides": [1, 1], "padding": "same", "data_format": "channels_last", "dilation_rate": [1, 1], "groups": 1, "activation": "linear", "use_bias": false, "kernel_initializer": {"class_name": "GlorotUniform", "config": {"seed": null}}, "bias_initializer": {"class_name": "Zeros", "config": {}}, "kernel_regularizer": null, "bias_regularizer": null, "activity_regularizer": null, "kernel_constraint": null, "bias_constraint": null}, "name": "conv2d_1363", "inbound_nodes": [[["activation_1361", 0, 0, {}]]]}, {"class_name": "BatchNormalization", "config": {"name": "batch_normalization_1359", "trainable": true, "dtype": "float32", "axis": [3], "momentum": 0.99, "epsilon": 0.001, "center": true, "scale": false, "beta_initializer": {"class_name": "Zeros", "config": {}}, "gamma_initializer": {"class_name": "Ones", "config": {}}, "moving_mean_initializer": {"class_name": "Zeros", "config": {}}, "moving_variance_initializer": {"class_name": "Ones", "config": {}}, "beta_regularizer": null, "gamma_regularizer": null, "beta_constraint": null, "gamma_constraint": null}, "name": "batch_normalization_1359", "inbound_nodes": [[["conv2d_1360", 0, 0, {}]]]}, {"class_name": "BatchNormalization", "config": {"name": "batch_normalization_1362", "trainable": true, "dtype": "float32", "axis": [3], "momentum": 0.99, "epsilon": 0.001, "center": true, "scale": false, "beta_initializer": {"class_name": "Zeros", "config": {}}, "gamma_initializer": {"class_name": "Ones", "config": {}}, "moving_mean_initializer": {"class_name": "Zeros", "config": {}}, "moving_variance_initializer": {"class_name": "Ones", "config": {}}, "beta_regularizer": null, "gamma_regularizer": null, "beta_constraint": null, "gamma_constraint": null}, "name": "batch_normalization_1362", "inbound_nodes": [[["conv2d_1363", 0, 0, {}]]]}, {"class_name": "Activation", "config": {"name": "activation_1359", "trainable": true, "dtype": "float32", "activation": "relu"}, "name": "activation_1359", "inbound_nodes": [[["batch_normalization_1359", 0, 0, {}]]]}, {"class_name": "Activation", "config": {"name": "activation_1362", "trainable": true, "dtype": "float32", "activation": "relu"}, "name": "activation_1362", "inbound_nodes": [[["batch_normalization_1362", 0, 0, {}]]]}, {"class_name": "Concatenate", "config": {"name": "block8_10_mixed", "trainable": true, "dtype": "float32", "axis": 3}, "name": "block8_10_mixed", "inbound_nodes": [[["activation_1359", 0, 0, {}], ["activation_1362", 0, 0, {}]]]}, {"class_name": "Conv2D", "config": {"name": "block8_10_conv", "trainable": true, "dtype": "float32", "filters": 2080, "kernel_size": [1, 1], "strides": [1, 1], "padding": "same", "data_format": "channels_last", "dilation_rate": [1, 1], "groups": 1, "activation": "linear", "use_bias": true, "kernel_initializer": {"class_name": "GlorotUniform", "config": {"seed": null}}, "bias_initializer": {"class_name": "Zeros", "config": {}}, "kernel_regularizer": null, "bias_regularizer": null, "activity_regularizer": null, "kernel_constraint": null, "bias_constraint": null}, "name": "block8_10_conv", "inbound_nodes": [[["block8_10_mixed", 0, 0, {}]]]}, {"class_name": "Lambda", "config": {"name": "block8_10", "trainable": true, "dtype": "float32", "function": ["4wIAAAAAAAAAAgAAAAMAAABTAAAAcxQAAAB8AGQBGQB8AGQCGQB8ARQAFwBTACkDTukAAAAA6QEA\nAACpACkC2gZpbnB1dHPaBXNjYWxlcgMAAAByAwAAAPpiL3Vzci9sb2NhbC9saWIvcHl0aG9uMy42\nL2Rpc3QtcGFja2FnZXMvdGVuc29yZmxvdy9weXRob24va2VyYXMvYXBwbGljYXRpb25zL2luY2Vw\ndGlvbl9yZXNuZXRfdjIucHnaCDxsYW1iZGE+dAEAAPMAAAAA\n", null, null], "function_type": "lambda", "module": "tensorflow.python.keras.applications.inception_resnet_v2", "output_shape": [8, 8, 2080], "output_shape_type": "raw", "output_shape_module": null, "arguments": {"scale": 1.0}}, "name": "block8_10", "inbound_nodes": [[["block8_9_ac", 0, 0, {}], ["block8_10_conv", 0, 0, {}]]]}, {"class_name": "Conv2D", "config": {"name": "conv_7b", "trainable": true, "dtype": "float32", "filters": 1536, "kernel_size": [1, 1], "strides": [1, 1], "padding": "same", "data_format": "channels_last", "dilation_rate": [1, 1], "groups": 1, "activation": "linear", "use_bias": false, "kernel_initializer": {"class_name": "GlorotUniform", "config": {"seed": null}}, "bias_initializer": {"class_name": "Zeros", "config": {}}, "kernel_regularizer": null, "bias_regularizer": null, "activity_regularizer": null, "kernel_constraint": null, "bias_constraint": null}, "name": "conv_7b", "inbound_nodes": [[["block8_10", 0, 0, {}]]]}, {"class_name": "BatchNormalization", "config": {"name": "conv_7b_bn", "trainable": true, "dtype": "float32", "axis": [3], "momentum": 0.99, "epsilon": 0.001, "center": true, "scale": false, "beta_initializer": {"class_name": "Zeros", "config": {}}, "gamma_initializer": {"class_name": "Ones", "config": {}}, "moving_mean_initializer": {"class_name": "Zeros", "config": {}}, "moving_variance_initializer": {"class_name": "Ones", "config": {}}, "beta_regularizer": null, "gamma_regularizer": null, "beta_constraint": null, "gamma_constraint": null}, "name": "conv_7b_bn", "inbound_nodes": [[["conv_7b", 0, 0, {}]]]}, {"class_name": "Activation", "config": {"name": "conv_7b_ac", "trainable": true, "dtype": "float32", "activation": "relu"}, "name": "conv_7b_ac", "inbound_nodes": [[["conv_7b_bn", 0, 0, {}]]]}, {"class_name": "GlobalAveragePooling2D", "config": {"name": "avg_pool", "trainable": true, "dtype": "float32", "data_format": "channels_last"}, "name": "avg_pool", "inbound_nodes": [[["conv_7b_ac", 0, 0, {}]]]}, {"class_name": "Dense", "config": {"name": "predictions", "trainable": true, "dtype": "float32", "units": 1000, "activation": "softmax", "use_bias": true, "kernel_initializer": {"class_name": "GlorotUniform", "config": {"seed": null}}, "bias_initializer": {"class_name": "Zeros", "config": {}}, "kernel_regularizer": null, "bias_regularizer": null, "activity_regularizer": null, "kernel_constraint": null, "bias_constraint": null}, "name": "predictions", "inbound_nodes": [[["avg_pool", 0, 0, {}]]]}], "input_layers": [["input_7", 0, 0]], "output_layers": [["predictions", 0, 0]]}, "keras_version": "2.4.0", "backend": "tensorflow"}